src/assets/trained/mt1/backup/model.pth (torch, 91831 bytes, 7 tensors)

embedding.weight f4 [100, 64]
000000 21 0a 8c 3f 31 e6 e1 3e f5 69 76 bf e9 83 3e bf
       1.0940591 0.44120935 -0.9625543 -0.7442003
000010 c1 f2 9c 3f 32 e1 47 bf d2 be 99 3f eb 43 c6 be
       1.2261583 -0.78077996 1.2011359 -0.38723692
000020 dc c8 82 3f 2d 7c ee 3f 04 32 0e c0 8b 5d 16 c0
       1.0217547 1.8631645 -2.2218027 -2.3494594
000030 da 9f 7f bf 3c 6e c0 bf 08 c6 cc be d2 ae 0a 3f
       -0.9985329 -1.5033641 -0.39994836 0.54173005
000040 9c c9 4d bf 3a a2 35 bf 53 28 2d 3f 73 87 7f 3f
       -0.80385756 -0.70950663 0.67639655 0.99816054
000050 6a 29 bd 3f 71 c6 42 3f 47 df 86 bf da c1 03 bf
       1.4778264 0.7608405 -1.0536889 -0.5146767
000060 b3 7b 72 be 03 47 3a c0 7d 71 d6 3e 61 4c 13 3f
       -0.2368 -2.9105842 0.4188346 0.5753842
000070 50 f7 15 3f ca d5 5f 3f 0b 18 04 bf 33 fc 80 3f
       0.58580494 0.8743559 -0.51599187 1.0076965
000080 9b 61 e1 3e 7f 4b e4 3e cd 7d a3 3f da 5e 60 bf
       0.4401978 0.4458885 1.2772766 -0.8764473
000090 b6 bf af 3f f9 2e 9d 3f d8 75 85 bf f0 b0 89 bf
       1.373038 1.227996 -1.0426588 -1.0757122
0000a0 24 f4 70 be 0f 01 2c 3f 3d 2b 90 3f 2f fb 56 bf
       -0.23530632 0.67189115 1.1263195 -0.83977026
0000b0 69 98 be 3f 31 8e 32 3f 34 5d a2 3f ec df ed 3d
       1.4890262 0.69748217 1.2684693 0.11614975
0000c0 86 9a a7 3f c5 41 8c be e0 b3 26 c0 96 a0 90 3f
       1.3094032 -0.27393928 -2.6047287 1.1299007
0000d0 5c b6 86 bf af cd c6 3f 22 1b fd bd 3f b5 e1 be
       -1.0524402 1.553152 -0.12358691 -0.44083592
0000e0 02 21 5d bf 24 be 44 bd f2 b5 a8 be e2 c8 8d 3f
       -0.8637849 -0.048032895 -0.32951313 1.107693
0000f0 19 f7 a5 3f 56 53 92 be 6e 2e 10 3f 87 32 a0 3f
       1.2966033 -0.28579205 0.56320846 1.251542
000100 94 81 49 3e 3a 2a 05 c0 62 42 05 40 55 07 0c 3e
       0.19678336 -2.0807023 2.0821767 0.13674672
000110 aa 21 d0 3f 13 5d 4f 3f a2 97 9b 3e 64 72 74 3f
       1.6260273 0.81001395 0.30389124 0.95487046
000120 c7 2d ae 3e e1 97 a5 bf 16 62 43 3f b8 09 d8 3e
       0.340193 -1.2936975 0.7632154 0.42194915
000130 62 d6 c8 3f 9b 21 03 3f 39 2c 2d bf 77 7f af bf
       1.5690424 0.5122315 -0.67645603 -1.3710774
000140 f4 a5 20 3e 19 b2 16 40 23 f7 06 bf 28 93 9b 3f
       0.15688306 2.3546202 -0.5272085 1.2154284
000150 25 70 cc bf 4d a9 31 be 5c 4f 41 bf 72 d6 95 3f
       -1.5971724 -0.1734974 -0.7551172 1.1706069
000160 3d 80 4c 3f 0e fd 0b 40 08 99 86 3f 0b c7 91 3e
       0.79883176 2.1873202 1.0515451 0.2847217
000170 b3 a3 c1 3f 41 c1 3e bf 20 26 7b bf 07 c5 f3 3f
       1.5128082 -0.7451363 -0.9810505 1.9044503
000180 e5 65 1d bf b6 3a 72 3f ad f9 95 3e d5 d3 75 bf
       -0.61483604 0.94620836 0.2929205 -0.96026355
000190 17 f1 4b 3c 51 74 42 bf fa ee aa bf 1a 2b f4 3c
       0.012447617 -0.75958735 -1.335418 0.029805709
0001a0 95 c8 7e bf 72 89 9f be 26 bc a7 3e 66 2d 87 bf
       -0.99524814 -0.3115955 0.32760733 -1.056073
0001b0 e5 35 9c bf ee ff 8c bf c3 cc cb be c3 b9 7d be
       -1.2203947 -1.1015604 -0.39804658 -0.24777894
0001c0 58 19 02 c0 09 55 c4 3f 36 50 9f bc 53 58 5a 3f
       -2.0327969 1.5338451 -0.019447427 0.8529102
0001d0 01 c8 1c 40 42 93 1a 3f a8 66 1b 40 69 91 fa bf
       2.4497073 0.6038095 2.4281406 -1.9575626
0001e0 f4 60 cb bf 07 a0 b9 be 98 75 d9 3e 39 0a e9 3f
       -1.5888963 -0.36254904 0.4247253 1.8206245
0001f0 52 2f 34 3f b8 4a 2e 40 1a 40 56 be cc 02 f8 be
       0.70384705 2.7233105 -0.2092289 -0.48439634
000200 2f d4 8b 3f db 15 0b bf 0b df f3 be 8a be 16 bf
       1.0924128 -0.54330224 -0.47631106 -0.5888449
000210 47 e3 0b bd 87 3d 8e 3f 6f da 3c bf 23 80 39 bf
       -0.034152295 1.1112527 -0.73770803 -0.72461146
000220 27 8f 9b bf bc bb 94 3f ba e1 30 bf 26 bc 57 be
       -1.2153062 1.1619792 -0.6909443 -0.21067867
000230 d2 19 f1 3d 74 9e 22 bf 33 b4 85 3f 28 7f ad 3d
       0.11772503 -0.6352303 1.0445617 0.08471519
000240 67 bd c8 3e 05 1c 01 c0 74 06 69 bf 81 d6 a5 bf
       0.39207003 -2.0173352 -0.9102547 -1.2956086
000250 c8 31 fe bf 87 e3 cb bf 28 2d 04 3f 4a b9 23 bf
       -1.9858942 -1.5928811 0.516314 -0.63954604
000260 69 35 3b c0 49 cf 23 bf a4 fa 8d bf 47 17 d0 bf
       -2.925135 -0.6398817 -1.1092114 -1.6257104
000270 48 41 5a bf 72 41 3c 3f 0d 6f e0 3f aa 17 5a bf
       -0.8525586 0.7353736 1.753389 -0.8519236
000280 5c e8 8f 3f f8 d2 26 3f 97 c1 59 3f 8c 11 23 bf
       1.1242785 0.6516566 0.8506102 -0.6369865
000290 68 3e 9e 3f 2d 9d 53 bf a4 5d 4e 3f d9 12 e9 3e
       1.2362795 -0.82661706 0.80611634 0.45522192
0002a0 99 a7 88 bf d2 39 9d bf b0 b4 50 be 91 e8 17 40
       -1.0676147 -1.228327 -0.20381427 2.3735697
0002b0 d9 f5 21 bd 47 0a 12 bf 45 b1 2b 3e 2e 58 4e bf
       -0.0395411 -0.5704693 0.16766842 -0.806033
0002c0 11 9c c2 bf cf 32 5e bf ec a4 4f 3f 1a 48 b4 bf
       -1.5203878 -0.8679628 0.81111026 -1.4084504
0002d0 56 30 fa be 74 d2 d8 3f 9f 78 af 3e cf 45 fa 3e
       -0.48865002 1.6939225 0.34271714 0.48881385
0002e0 bd 3d 11 3e a4 85 9a bf bf 60 ab bd 6d bf da bc
       0.14183708 -1.2072034 -0.08368062 -0.026702607
0002f0 ad f2 a8 bf ab 1c 92 3f f8 19 04 40 b5 35 30 bf
       -1.3199059 1.1414999 2.064085 -0.6883195
000300 4c ea cb 3e 04 d4 d7 3e a2 c3 b1 3f 25 a6 db bf
       0.39827192 0.42153943 1.3887827 -1.7160078
000310 20 fb 89 3f 9b f5 63 bf 93 d5 19 40 17 08 5a bf
       1.0779762 -0.8904664 2.4036605 -0.85168594
000320 a0 19 21 bf 1e 6f 99 be ac 08 e0 be e2 dd d7 3e
       -0.62929726 -0.29967588 -0.43756616 0.4216147
000330 82 c6 93 bf 61 0e 16 be 4d 50 78 3e f3 2a 76 bd
       -1.1544955 -0.14653923 0.24249382 -0.060099553
000340 b1 3e 7a 3f 80 d4 d6 be b0 37 76 3f da 61 fa 3d
       0.9775191 -0.41959 0.9617872 0.12225695
000350 c8 3f 9d 3f 8c 9b 8c 3f 68 a0 69 bf 05 5f f4 3e
       1.228509 1.0984969 -0.91260386 0.47728744
000360 73 72 da 3e 2c e4 0e 3f 32 ce db 3f ee 64 aa 3f
       0.42665443 0.5581691 1.7172301 1.3312051
000370 b5 61 81 bf 10 15 40 be ad 6c 84 bf 13 54 0c bf
       -1.0107943 -0.18758035 -1.0345665 -0.5481579
000380 01 12 b7 3f e7 ab 04 c0 d6 aa b2 3e 7e 78 36 bf
       1.4302369 -2.072992 0.34895962 -0.71277606
000390 12 2b 3f bf 18 02 4d bf 7e d7 2b 3f 6f e6 db be
       -0.74675095 -0.8008132 0.6712569 -0.42949244
0003a0 8a 63 a0 be 7a d2 83 bf ac 36 34 3e 14 9e e6 3e
       -0.31325942 -1.0298607 0.1759898 0.4504248
0003b0 df b5 b6 3e 16 67 c5 3f 44 e4 38 c0 b9 e7 f2 3d
       0.35685632 1.5422084 -2.8889322 0.11860604
0003c0 db ca ac 3f bc 52 33 be 3e a8 ca be 2f 2a 43 bf
       1.3499407 -0.1751203 -0.39581484 -0.7623624
0003d0 29 42 a3 3c d8 35 01 bf 51 bc da be 4e ee ab 3e
       0.019929009 -0.50472784 -0.427218 0.3358025
0003e0 b3 95 02 3e 0a 83 34 bf 8a 54 6e 3f 9e e5 da be
       0.12752418 -0.7051245 0.93097746 -0.4275331
0003f0 8a 1c 7e bf fd 27 cf bf 37 2f c8 3f 96 e3 df 3f
       -0.992623 -1.6184078 1.5639409 1.7491329

lstm.weight_ih_l0 f4 [128, 64]
000000 ed 2e 15 3d e4 1a 9d 3d 59 99 ff bd 6e fd 5d 3c
       0.036421705 0.076711446 -0.124804206 0.013549192
000010 37 81 66 be f2 69 fc bd 89 d1 b6 bd 40 4f 70 bd
       -0.22510229 -0.12324895 -0.089266844 -0.05866933
000020 18 97 b1 be 69 44 1e ba 87 aa 51 be df 93 33 3d
       -0.34685588 -0.00060374156 -0.20475207 0.043842193
000030 fd e7 5b bb 87 91 7d 3e d4 f9 a1 be 4d 69 b4 3a
       -0.0033555024 0.24762546 -0.31635916 0.0013764292
000040 73 62 49 bb 8c 43 94 be 99 d5 55 3b 0d 29 23 be
       -0.0030728846 -0.28957784 0.0032628535 -0.15933628
000050 40 99 28 3e 39 74 39 bd 0f 31 0f 3e c2 8e 25 3e
       0.1646471 -0.045276854 0.13983558 0.16167739
000060 8c da 83 bc 9f e3 07 be 64 cd fd 3d db eb 6f be
       -0.016095422 -0.13270424 0.12392691 -0.23429815
000070 a4 51 4e bb f2 25 aa bc 6d 42 03 3d c7 eb f4 bd
       -0.0031481767 -0.020770047 0.03204577 -0.119590335
000080 8b 99 05 be 19 5f 4b be 78 15 cb 3c 96 74 b0 bd
       -0.13046853 -0.19860496 0.02479051 -0.08615987
000090 aa 43 8f 3d fb cd 1b 3e d0 a2 a2 3d fe a1 58 be
       0.06995328 0.15215294 0.0794121 -0.21155545
0000a0 2b c3 a6 3d a4 de f4 3d ab 43 96 3d 41 b4 aa bd
       0.08142694 0.11956528 0.073371254 -0.08335162
0000b0 69 04 b7 3d e5 bb 7b 3b c1 a9 4e be 90 26 ce 3c
       0.08936388 0.0038411554 -0.20181943 0.025164872
0000c0 73 14 b0 bd 6c 25 e3 bd 78 38 c0 3d 12 be 9c bc
       -0.085976504 -0.11091122 0.093857706 -0.019133601
0000d0 e5 a1 43 3d c2 63 a2 bc ce e7 2a be 0c 72 53 3d
       0.047761817 -0.019822959 -0.16689989 0.051622435
0000e0 82 74 e4 bd 08 1e 63 bc cc 56 b8 bd 31 0a 26 3e
       -0.111550346 -0.0138621405 -0.0900093 0.16214825
0000f0 d2 4f b9 3d cd 8f af bd 26 61 6f be e4 19 2c 3e
       0.09048428 -0.0857235 -0.23376903 0.16806751
000100 73 8e bb 3c 6a 4a 60 3d 62 3e 96 3c bb 3b 96 3d
       0.022895074 0.054758467 0.018340293 0.073356114
000110 cf 89 f7 3d 4f 1d 73 bd 69 73 57 3e fc 20 58 be
       0.12086832 -0.059354123 0.21040119 -0.21106333
000120 41 c4 ae bd 13 ac 12 bd e3 bb bd 3d 1b 83 3f bd
       -0.08533526 -0.035808634 0.09264352 -0.04675589
000130 2d 77 b1 bc 92 07 08 bd 0c ea f9 bd ff df 3a 3e
       -0.021663273 -0.033210345 -0.12202844 0.1824951
000140 2e 9a 2d bd de 84 4c be 12 1c e1 bd 53 d1 3b bd
       -0.042383365 -0.1997256 -0.10991682 -0.045853924
000150 50 69 57 3d 42 3b 0a 3e fd 9b 31 3e 3b 52 52 bd
       0.05259067 0.13499168 0.17344661 -0.051347952
000160 4d 7c 34 3e 78 b4 14 be a3 6e 25 3e 43 7a 71 3d
       0.17625542 -0.14521968 0.16155486 0.05895449
000170 bb 97 b4 3d 7e cd 04 be e3 6c b0 bd b3 2c 7e 3c
       0.08818003 -0.12969014 -0.086145185 0.015513587
000180 85 ca 24 bc 7f 45 04 3e 46 f7 38 be 6e 8d 03 3e
       -0.01005805 0.12917136 -0.18063077 0.1284692
000190 a7 9b 35 3b 94 59 9a 3d 9b 77 43 bc e5 d0 e4 3b
       0.0027711184 0.07536617 -0.011930372 0.00698291
0001a0 4e 2d 83 bd 66 24 4f 3e d1 23 73 3c b2 fd 62 be
       -0.064051256 0.20228729 0.014840082 -0.2216709
0001b0 1e 28 a4 bc 38 4f a1 3d cf c7 c8 3c a1 71 29 bd
       -0.02003866 0.07876438 0.024509339 -0.04136813
0001c0 b8 70 02 3e 3d f2 80 3d 5f 25 a1 bd 2a 4c f3 3d
       0.12738311 0.06296203 -0.07868456 0.118797615
0001d0 d0 59 23 bc 49 3a 82 bc a7 bd e3 bd 30 50 0b be
       -0.009970143 -0.015896933 -0.11120158 -0.13604808
0001e0 66 f5 f1 bc 52 92 c5 bc e1 47 a1 3d d5 52 4a 3e
       -0.02953596 -0.024117623 0.07875038 0.1975816
0001f0 82 7c 32 be 64 96 2b 3e 19 fc 37 3e 31 ab ff bd
       -0.17430308 0.16756588 0.17967261 -0.12483824
000200 39 de d4 3d 5c 5b 8c be 49 cd 47 3e 9c 55 22 be
       0.10393948 -0.27413452 0.19511904 -0.1585297
000210 55 74 56 3d cb 68 0d 3d 63 6c 09 3e b0 43 76 3d
       0.052357037 0.034523766 0.13420253 0.060123146
000220 2a af 07 3e 17 c6 8e bc 1d 84 5b bd 7d b5 10 3e
       0.13250414 -0.017428441 -0.05359279 0.14131732
000230 2c fb b1 bc 96 c5 81 3d dc ee 65 be f5 6b c4 3d
       -0.021726213 0.06336515 -0.22454399 0.09590904
000240 f5 aa 91 be 2c b5 2e 3e c0 3d 94 bd 96 fc 57 3d
       -0.28450742 0.17061299 -0.072383404 0.05273112
000250 9e a6 bf bc a3 4b 1a 3e 34 a5 df bd 3b ad 90 3e
       -0.023394879 0.15067916 -0.10920182 0.28257164
000260 1a 56 54 3c 5d f0 8e bd 6b ca 69 bd 20 70 00 be
       0.012959981 -0.069794394 -0.057077806 -0.12542772
000270 9d 3f 3f bd 2f 36 a7 be 43 49 76 3e fd d0 4b 3e
       -0.046691526 -0.32658526 0.24051385 0.19903941
000280 fc 28 77 be a2 3b 7f 3c fb a2 2f be 42 26 65 3d
       -0.24136728 0.015578182 -0.17152016 0.05594469
000290 8c c3 25 be eb fc 02 3e 33 e4 7c bd bd 2c 5a 3c
       -0.16187876 0.12791793 -0.061741065 0.0133163305
0002a0 08 b2 8d 3d f9 b4 1a 3d 46 7f 75 3d c9 6c 9a 3e
       0.069187224 0.037770245 0.05993583 0.3016112
0002b0 e3 c4 92 be 16 0b 28 be b4 18 82 be 2a 3b 80 3e
       -0.28665838 -0.16410479 -0.25409472 0.2504514
0002c0 18 65 e0 bd 3a 39 48 be b1 d6 a2 3e ee 9b 62 3e
       -0.10956782 -0.1955308 0.31804422 0.22129795
0002d0 21 4c 31 3d c8 74 45 3d 9d 53 1a 3e 30 63 8b be
       0.043285493 0.048207074 0.15070958 -0.27224112
0002e0 98 84 e8 3d 6b 56 b8 bd 40 c0 5a 3e 00 9f 2d be
       0.11353415 -0.09000858 0.213624 -0.16955185
0002f0 96 96 53 be 60 dc 33 3e d0 cf a7 bc af 07 1f 3e
       -0.20662913 0.17564535 -0.020484835 0.15530275
000300 8c 11 f6 3c f0 44 00 3e e0 45 c6 bd 78 cd b2 3d
       0.030037664 0.12526298 -0.09681296 0.08730596
000310 71 6d 78 3d 8e ba 57 be 0d a6 7c be 07 ff fc bd
       0.060651246 -0.21067259 -0.24672718 -0.1235333
000320 fd 88 ec bd 47 e6 23 be c8 d3 51 3e f8 fc 7b 3c
       -0.11549566 -0.16005813 0.20490944 0.015380137
000330 49 ec b8 3c e5 45 e9 bd f1 87 97 be 05 fd 62 3b
       0.022573607 -0.113902844 -0.29595903 0.0034635675
000340 17 b9 89 3e 94 75 02 3e ca b5 9b 3d b7 a9 fc bc
       0.26899025 0.12740165 0.07603033 -0.030842645
000350 ab 65 06 bd de ba b0 3d 78 52 73 3e 88 03 36 3e
       -0.032811802 0.08629392 0.23761928 0.17774785
000360 d6 c4 31 be 0a ab 95 bd eb bf d3 bd 8e 2c 0c 3e
       -0.17360243 -0.07308014 -0.1033934 0.13688871
000370 c6 27 a8 3d 13 80 41 bd 8d 98 24 bc 2e 11 e8 3d
       0.08210711 -0.04724128 -0.010046137 0.11331402
000380 8a 47 83 be 0d c9 38 be cd 9a 87 bd a2 7d f0 3b
       -0.25640517 -0.18045445 -0.06621323 0.0073391953
000390 9e 65 11 3e c1 0b 39 3e 07 21 e2 bd b4 86 01 be
       0.1419892 0.1807089 -0.11041456 -0.12649041
0003a0 fc be e1 3d ce 5e 34 3d be 6d 40 bd 39 46 f5 bc
       0.110227555 0.044035725 -0.04697966 -0.029940711
0003b0 5e 34 94 be 55 65 a3 3d 18 7f 5f be bf 31 0e bd
       -0.28946203 0.07978312 -0.21825826 -0.03471541
0003c0 c4 f5 b8 3c 7f 66 75 3d 3f 5f 5c bd 10 3f ef bd
       0.022578128 0.0599122 -0.05380177 -0.1168195
0003d0 67 71 3f bd fc 46 f2 3d 6c a5 bd bd af 83 13 be
       -0.04673901 0.118299454 -0.09260067 -0.14405702
0003e0 77 ae ca bc 5b 06 69 3c 05 c7 af 3e d4 b9 53 3e
       -0.024741394 0.014222707 0.34331527 0.20676357
0003f0 7c 8a 1f 3e cc 05 e0 3b 78 a3 0a be d4 24 c3 bd
       0.15580171 0.0068366285 -0.13538921 -0.09528509

lstm.weight_hh_l0 f4 [128, 32]
000000 af 4d 24 bc c2 b7 cf be a9 9d f1 3c e1 af 41 3e
       -0.010028287 -0.40569884 0.029494124 0.18914749
000010 09 b6 25 be 76 de 93 3d e2 11 8b 3e ee e8 e6 bc
       -0.16182722 0.072201654 0.2716208 -0.028187241
000020 7e 92 65 3e f4 e6 87 be 7e 7b 2f 3e c5 f1 3d 3e
       0.22419164 -0.2654339 0.17136952 0.18549259
000030 e4 54 89 be 8e 95 42 be ed 94 58 be 45 cf 73 3e
       -0.2682258 -0.19002363 -0.2115056 0.23809536
000040 59 49 dd bd fa 72 0b bb 9a f6 fe bd aa 78 36 3e
       -0.108050056 -0.0021278248 -0.12449379 0.17819467
000050 e4 07 90 3e d2 b6 84 be 9d 65 07 3e 8a 52 cc 3e
       0.2813102 -0.2592073 0.13222356 0.39906722
000060 73 28 51 bd cc 3b 8f be d5 11 d9 be dd 83 38 be
       -0.051063966 -0.2797531 -0.42396417 -0.18019052
000070 48 94 80 3e 00 dd a1 be 03 0e 9d 3d 45 02 a2 3d
       0.2511313 -0.31613922 0.07668688 0.07910589
000080 9c 66 fe 3d 4b 30 d5 3d 56 8a ca bc 6e ad 52 3e
       0.12421915 0.10409602 -0.024724167 0.2057397
000090 f6 19 9d bd 02 af ce bd a1 68 a6 3d 06 de 37 be
       -0.07670967 -0.10091974 0.08125425 -0.17955789
0000a0 b3 e7 71 3e b1 88 c7 bd 66 ae 97 bc 3d 0d 23 3e
       0.23623542 -0.09742869 -0.018515777 0.15923019
0000b0 ce ef 26 3d 14 86 ca 3d 35 df 2a be 8c a9 84 3e
       0.04075604 0.098888546 -0.16686709 0.25910604
0000c0 5f b1 2a be 18 de 22 3e e9 11 fa bd 3a 6e 13 3e
       -0.16669224 0.15905035 -0.12210447 0.14397517
0000d0 e7 d5 93 3d f6 60 89 3d 71 b0 50 3c eb b1 27 bd
       0.07218533 0.06707947 0.012737379 -0.04094116
0000e0 03 67 b6 bc d7 b2 57 bc c1 a6 3e be 7a f7 fc bc
       -0.022265917 -0.013165197 -0.18618299 -0.030879725
0000f0 86 4e 58 3d 0a a1 83 bd ba 6c 97 3c 7a 82 3b bd
       0.05280926 -0.064272 0.018484462 -0.04577873
000100 eb 9d 6e bd 69 64 82 be d7 83 72 bd 88 2d 82 3e
       -0.05825607 -0.25467232 -0.059207764 0.25425363
000110 33 a0 06 bd 72 f5 f2 bd dd 5b 2e 3e 86 ff a6 3c
       -0.03286762 -0.11863221 0.1702723 0.020385515
000120 b9 b4 2f bc b7 0c d7 bd 14 f8 3b 3c 00 74 17 3d
       -0.01072424 -0.10500472 0.011472721 0.03697586
000130 ec cb 8c be bd f1 55 be 9c bb 20 bd 5d f2 a8 bd
       -0.2749933 -0.20892997 -0.03924142 -0.08249352
000140 b4 50 7d be 8f 3a 06 be 24 fc 63 be f6 58 84 3e
       -0.24737817 -0.13108276 -0.22264153 0.25849122
000150 a1 25 e0 3c d1 10 e9 bc d1 b3 c6 3d 26 13 7d 3e
       0.027361693 -0.028450401 0.09702266 0.24714336
000160 ea 64 c8 bd 42 bf 8f be ae 87 e4 bd 8c 5f 82 be
       -0.09784873 -0.28075606 -0.11158691 -0.2546352
000170 87 2b 21 3e 47 de cd bc 5e 60 66 3e 58 71 1f 3e
       0.1573926 -0.025130404 0.22497699 0.15570581
000180 0a c6 8e 3d 60 fa 96 be d3 c5 a8 3d 06 ad ba 3e
       0.06971367 -0.29487896 0.08240857 0.3646013
000190 d2 b7 cb bd 8e e8 a8 bd 67 3a 69 3e d1 75 ba 3c
       -0.0994717 -0.08247481 0.22776185 0.022761257
0001a0 2d 3c 83 3e f0 7a 4d bc 33 02 05 bd b4 82 47 3d
       0.25631848 -0.012541518 -0.0324728 0.048708633
0001b0 19 60 35 be 92 2e ca bd a2 ad f3 bd f6 40 ba 3e
       -0.1771244 -0.09872164 -0.11898352 0.36377686
0001c0 52 03 06 bd e2 f4 96 bd d3 14 25 be 38 aa cc 3d
       -0.03271801 -0.073709264 -0.16121225 0.09993404
0001d0 7d 6b ec bd ca 26 6b bd 61 ba 1c 3e d5 47 39 3e
       -0.11543939 -0.05741004 0.15305473 0.18093808
0001e0 bd 2e 17 be 06 5b 1f be c4 53 8d be 29 5c 29 be
       -0.14763923 -0.15562066 -0.2760297 -0.16539063
0001f0 e6 30 f9 3c a1 f8 6c be ee 9b 9e 3e e1 96 0e 3d
       0.030418824 -0.2314172 0.3097834 0.034811858
000200 d6 73 76 3d 11 ed 48 ba 64 9b 83 be f1 42 60 3e
       0.060169064 -0.000766472 -0.2570449 0.21900536
000210 0b 85 53 bd ed 6f e3 bd 67 2f 7e 3d 58 60 3c 3d
       -0.05164055 -0.111053325 0.062056925 0.045990318
000220 4d 39 a2 3e 14 c9 ea bd 26 ec 83 3d 92 0a 0d 3d
       0.31684342 -0.11464134 0.06441526 0.03443391
000230 ad dd 85 be 37 14 26 be 81 e6 5d bd 2f f1 b6 3e
       -0.26145688 -0.16218649 -0.054174904 0.35730883
000240 c4 64 55 bc e0 a2 1d 3d 16 75 0a be 63 a6 a9 3c
       -0.013024513 0.038485408 -0.13521227 0.020709222
000250 ae fd 2d 3d b6 36 30 3d 9c 08 b1 3d 16 7b ab 3d
       0.042478256 0.043020926 0.0864422 0.08373086
000260 cb bb 81 bb fe 1a 25 bd d8 f7 72 be 4e 0f a9 be
       -0.0039591542 -0.040308945 -0.23727357 -0.3301949
000270 86 4e ee bc c9 65 1f be 6d 87 7e bd a5 e3 20 3e
       -0.029090177 -0.15566172 -0.06214087 0.1571184
000280 dd 02 84 3e 7d 7c f9 bd 26 26 63 be 3e ba b8 3e
       0.25783435 -0.121819474 -0.22182521 0.36079592
000290 7c d7 69 bd 66 96 a2 bd 19 f0 5a bb fd 46 66 3d
       -0.057090268 -0.079388425 -0.003340727 0.056220043
0002a0 fe 2e 83 3e d0 89 b4 bd 3d 57 b5 3d 88 fc 25 3e
       0.2562179 -0.08815348 0.0885453 0.16209614
0002b0 69 f8 7d be d9 51 3c be c6 d8 3c be e1 04 7f 3e
       -0.24801792 -0.18390597 -0.18442068 0.24904205
0002c0 b4 cb e2 3b 0d 65 47 3e 51 53 e6 bd 90 d0 80 3e
       0.006921256 0.19472142 -0.1124636 0.2515912
0002d0 87 ac 91 3e b2 09 f0 bd cf 75 4f 3e d3 0e 82 3d
       0.2845194 -0.11720599 0.20259784 0.06350484
0002e0 8e 72 f0 bd a2 2f a9 bd 76 3f e7 bd 94 23 70 be
       -0.117405996 -0.08261038 -0.11291401 -0.23451072
0002f0 cf ac b5 3e 39 60 52 be 29 47 c5 3d 25 e4 cc bd
       0.35483405 -0.20544519 0.09632713 -0.100044526
000300 2c 48 a6 3e 98 56 35 be d3 8a e0 bd 13 0b 85 3e
       0.32476938 -0.17708814 -0.109639786 0.2598501
000310 8b e8 39 be 33 ef 0e 3e 25 11 5d be 85 d8 d6 3c
       -0.18155114 0.13958435 -0.21588571 0.026226291
000320 c2 89 94 3e 20 32 c1 bd 4c ab 7b 3d c0 50 76 3e
       0.2901135 -0.09433389 0.06144266 0.24054241
000330 bc 64 56 be dc 2b 66 bd f7 5a 1e be 69 6a c1 3d
       -0.20936865 -0.05619417 -0.15464388 0.09444124
000340 8f 10 43 3c 94 7f 92 3d 55 7e 68 3d c0 61 bd 3e
       0.011905803 0.0715324 0.056761105 0.3698864
000350 02 fc 8d 3e bd 75 a2 bc 14 0d 88 3e aa ad 09 3d
       0.2773133 -0.019831533 0.26572478 0.033612885
000360 87 64 14 bd 60 de 19 be ef 08 8e be da a7 7c be
       -0.036228683 -0.15026236 -0.2774119 -0.24673405
000370 34 04 3b 3e ad 69 13 be ce 9f ad be 4e a2 ac 3d
       0.18263322 -0.14395781 -0.33910984 0.08429395
000380 21 05 82 3b 6f d5 22 3d 41 d9 41 be 02 ef 8d bc
       0.0039678966 0.039754327 -0.18930532 -0.017325882
000390 71 75 24 be d1 fc e7 bd a6 83 07 3d 21 06 a9 bd
       -0.16060425 -0.11327518 0.033084534 -0.08253122
0003a0 98 77 d5 3d 8d 50 b0 be db 8a 9f 3e fe 6a 69 3e
       0.10423201 -0.34436455 0.31160626 0.2279472
0003b0 b0 88 ca bd 27 27 95 be b2 16 c2 be f6 09 40 3e
       -0.09889352 -0.29131433 -0.3790794 0.187538
0003c0 8d a9 9e 3d a0 e6 bd bd 6c f4 86 be a6 3c c8 3e
       0.07747183 -0.09272504 -0.26358354 0.3910877
0003d0 0a d0 a6 3e c4 dd d7 bd 57 43 60 3e 73 da a7 3e
       0.32580596 -0.10540345 0.21900688 0.3278385
0003e0 07 59 bf be 37 b7 b3 be 0f 92 87 be bb 12 9a be
       -0.3737261 -0.3510072 -0.2647862 -0.30092415
0003f0 d6 a1 3a 3e 94 11 4e be 9e 21 9a 3e 01 56 08 3c
       0.18225798 -0.20123893 0.30103773 0.008321286

lstm.bias_ih_l0 f4 [128]
000000 70 f0 bc 3e be 76 d2 bd 1d 15 02 3e 2e ee f6 bc
       0.3690219 -0.102765545 0.12703367 -0.03014287
000010 b4 09 27 3e ba 07 07 3e ad 16 66 3e 95 69 96 3e
       0.16312295 0.13186541 0.22469588 0.29377428
000020 2b dc 6c 3e 25 7b 95 bd 21 24 5d 3e b0 cf 13 3d
       0.23130862 -0.072988786 0.21595813 0.036086738
000030 5e 48 cf bc 03 de a3 3e 36 37 10 3d da 6b 0c 3e
       -0.025303062 0.3200532 0.035208903 0.13713017
000040 f5 9b 94 3e 6a 3b c7 3e f1 c5 3a 3e 21 60 17 3e
       0.29025236 0.38912517 0.18239571 0.14782764
000050 81 d4 19 3e 61 00 58 3e b5 4c 08 3e cc 5e 47 3e
       0.1502247 0.21093895 0.13310511 0.19469756
000060 30 33 6d 3d ad 4c 86 3e 7b 7d 7a bd 5f 25 4d 3d
       0.057910144 0.26230374 -0.061154824 0.050084468
000070 d0 51 29 3e fd c2 11 3d b0 ef a8 3e 5e 8b 1d 3e
       0.16535115 0.035586346 0.32995367 0.15385196
000080 bf db 18 be 41 e9 85 bd 41 05 a4 bc e1 ad fa 3b
       -0.14927576 -0.0653863 -0.020022037 0.0076501225
000090 1f 26 91 3c e7 79 06 bd 1b 55 30 3e 6f af 98 bc
       0.017718373 -0.0328311 0.17219965 -0.01863834
0000a0 95 f7 bb bc 0c 33 60 3e 8b 63 a9 3d 3e 93 23 3e
       -0.022945205 0.21894473 0.082709394 0.15974137
0000b0 51 a7 39 3d 32 2c a8 bd 78 7c 75 bd 75 f5 5e 3d
       0.04532558 -0.082115546 -0.059933156 0.054433305
0000c0 67 6a d0 3d b4 ff de bc e5 f1 89 3c de 6d 1c bd
       0.10176545 -0.027221538 0.016838977 -0.038190715
0000d0 00 bc 01 3d 73 cc 05 3e 0a 7a 20 3c 3f e7 f7 3d
       0.03167343 0.13066272 0.009794721 0.121046536
0000e0 08 ca 57 bc fc 83 f1 3d c8 37 9c 3d b9 5f 79 3e
       -0.013170727 0.11792752 0.07627827 0.24352922
0000f0 f1 65 d1 3d 4b 6b 11 bd 4c 31 87 bd 8a 45 a5 bd
       0.10224522 -0.035502713 -0.066011995 -0.08069904
000100 e7 6b 8c bd 51 78 8a bd a2 25 b2 bb 6c d9 f8 3d
       -0.06856518 -0.0676123 -0.005436615 0.12150845
000110 1a 56 05 be 7b 8e 0c be 96 b8 83 3c af a2 89 ba
       -0.13021126 -0.13726227 0.016079228 -0.0010500754
000120 6d 4d b9 bd 4a 2d 27 bc 18 7a bf bd 5e 66 c4 3c
       -0.09047971 -0.010203669 -0.093494594 0.023974594
000130 84 75 25 bd 82 b4 a7 3d 18 5f e8 bd 4a 09 81 3c
       -0.040395275 0.08188726 -0.11346263 0.0157515
000140 71 a9 34 bd 9e 78 23 be 6b dd 27 be d8 80 4e 3e
       -0.044106904 -0.1596398 -0.16393058 0.20166337
000150 6d 4c 6b bd 10 a4 15 be 51 c3 38 3e 5d 6c 2d bd
       -0.057445932 -0.14613366 0.18043257 -0.04233967
000160 4a cb 75 3d 01 f1 9d 3d 59 5f 3f bd d7 de 23 be
       0.060008325 0.077119835 -0.04672179 -0.16002975
000170 41 8d 8d bd 5f be 16 be f2 07 c1 3d df af 66 3e
       -0.06911708 -0.14721058 0.094253436 0.22528027
000180 43 3f 86 3e d6 38 3c 3e 83 15 b4 3e 75 1a ea 3d
       0.2622014 0.18381056 0.35172662 0.114308275
000190 be 79 89 3e 5d f4 02 3e b1 60 3d 3e 81 37 3c 3d
       0.26850694 0.1278853 0.18493916 0.04595137
0001a0 4f 2f 38 3e 91 a4 54 3e d4 ae 3a 3e 54 20 ef 3c
       0.17986797 0.20765902 0.18230754 0.02919022
0001b0 57 a6 18 3e 95 52 d0 3d 8a 69 b5 3c 04 f6 a9 3e
       0.14907204 0.10172001 0.022145052 0.33195508
0001c0 33 c9 c6 3d cf 84 f7 3e b6 c7 0d bd 6f 84 9a 3e
       0.097063445 0.48343512 -0.034614287 0.30179164
0001d0 48 7f 0b 3e 22 bc c8 bd be 73 04 3e 7b 46 0a 3e
       0.13622773 -0.098015085 0.12934777 0.13503449
0001e0 d2 f9 9a 3d aa eb 87 3d 3f 7d b2 3d d1 0c 29 3e
       0.07567181 0.06636746 0.08715295 0.16508795
0001f0 a4 ae 1d bd 91 0d 8c 3a be 6c 98 3e 47 31 df 3c
       -0.03849663 0.0010685195 0.29770464 0.027245177

lstm.bias_hh_l0 f4 [128]
000000 8a 3d 5a 3e f8 d3 3b 3e 34 88 b1 3c f3 90 0f bb
       0.21312538 0.18342578 0.021671392 -0.0021906465
000010 e4 87 0d 3e 6b e6 17 3e 8f f2 2b 3e 63 49 46 3e
       0.1382137 0.14833991 0.16791748 0.19363932
000020 00 b9 90 3d 36 29 b7 3d 59 89 52 3d 70 54 eb 3d
       0.07066536 0.08943407 0.051400516 0.114907146
000030 44 b9 f6 3d 99 0b 80 3e 4c cc 2e 3e 10 80 4a 3e
       0.12047055 0.25008848 0.1707012 0.19775414
000040 53 e8 d0 3d 17 99 31 3e 53 4e dc 3c e2 27 91 3e
       0.10200562 0.17343555 0.026892817 0.2835074
000050 6b 79 4d 3e 56 ea b8 3d e5 3a 69 3e 38 7a 6b 3d
       0.20065849 0.09029071 0.22776373 0.057489604
000060 a6 bd 2a 3d e7 3a df 3c 46 92 5f 3e 9d ba 2a 3e
       0.04168477 0.027249767 0.21833143 0.1667275
000070 c1 33 f0 3c e1 7d e1 bd f4 3e 34 3e 7b 73 0b 3e
       0.029321553 -0.110103376 0.1760214 0.13618271
000080 32 05 59 3c 7d 7f 46 3d 86 07 a9 bd a5 33 66 3e
       0.013245868 0.048461426 -0.08253388 0.22480638
000090 5b 9f 11 3e 42 ef 20 bd b9 ea 2a 3e d2 a0 88 bc
       0.14220946 -0.039290674 0.16691102 -0.016678248
0000a0 ff 86 7b 3d 70 4c 77 bd fd 6a 35 3e f7 a7 92 3d
       0.06140804 -0.06037563 0.17716594 0.07160943
0000b0 fd bd 1a 3d 6f 26 5a be 45 de 17 bd a0 f3 4d 3d
       0.037778843 -0.21303724 -0.037077207 0.050281167
0000c0 ec 2c d5 bd 91 cd 27 bd 2b 39 7c 3a f3 e5 fc bd
       -0.10408959 -0.040967528 0.0009621556 -0.12348547
0000d0 1f 70 2e 3d 1b 99 2b bd 97 10 22 3e 70 22 c9 ba
       0.042587396 -0.04189406 0.15826641 -0.0015345346
0000e0 e7 e5 d4 bd 6b 51 13 3b df bb d8 3d 51 a5 82 3d
       -0.10395413 0.0022478949 0.105827086 0.06379188
0000f0 f2 ac 36 3d ea d2 3b 3e 92 e9 2b 3b c7 5a d8 bd
       0.044598527 0.18342176 0.0026231748 -0.105641894
000100 e2 f5 d1 3d 88 70 bd bd 19 27 3e be a1 ed da bb
       0.102519765 -0.09249979 -0.18569602 -0.0066811596
000110 b1 5a 59 be 1f d8 3a be 27 74 32 3e 38 0b eb bc
       -0.21226002 -0.18246506 0.17427121 -0.028691873
000120 75 ed 6d 3e e5 6b bf bd db 53 98 bd 43 3d ee 3b
       0.23235114 -0.09346751 -0.07437869 0.0072704866
000130 3e 54 6e 3d 14 a8 f3 3c d5 ac 8e 3d aa af 5c 3e
       0.05818581 0.029743232 0.06966559 0.21551386
000140 07 a0 38 be 8d 01 09 bc f9 55 9c 3d fc 3d fa 3c
       -0.18029796 -0.008362186 0.076335855 0.030547135
000150 59 cd 2e 3e 82 4f 12 be a2 ac 4f 3d 38 12 71 3e
       0.17070521 -0.14288142 0.050701745 0.23542106
000160 06 d3 67 bd 54 4c 4f be 9c 21 2c 3c 26 b7 66 3c
       -0.056597732 -0.2024396 0.01050606 0.014081752
000170 0d 9d 58 3e 64 a9 c2 3c 45 0b 91 3c 7e 2f 36 3e
       0.2115366 0.023762412 0.017705569 0.17791554
000180 f2 51 be 3e 7d 4c 57 bc 70 3c 93 3e c4 04 44 3e
       0.37171894 -0.013140795 0.28757048 0.19142443
000190 1d 68 b4 3d 7c 52 a1 3e 34 29 97 3e 49 ca 00 bd
       0.088089205 0.31508243 0.29523623 -0.031442914
0001a0 eb 83 b8 3d 93 93 f7 3d ba 3b a3 3e 68 b3 02 3e
       0.09009536 0.120886944 0.31881505 0.1276375
0001b0 65 ac a8 3e 8f 2c c9 3e 3e 4d e6 ba 18 55 7f 3e
       0.32944027 0.39291808 -0.0017570627 0.24934804
0001c0 b6 41 2d 3e 3a 89 95 3e 79 f9 30 3e d9 de 9b 3e
       0.16919598 0.29206258 0.17282666 0.30443457
0001d0 d0 a9 0a 3d db c5 97 3d 52 c1 39 3e 94 75 1b 3e
       0.033853352 0.07410785 0.18140152 0.15181571
0001e0 86 b0 27 3d eb ae 38 3e d2 13 8c 3d 8d 98 e6 3b
       0.04093983 0.18035476 0.06839718 0.0070372284
0001f0 fe 7a 54 3e 03 b2 11 3e 4a 34 13 bb ab 89 7d 3e
       0.20750043 0.14228062 -0.0022461587 0.24759547

fc.weight f4 [100, 32]
000000 96 7c d3 3e a7 1f d5 bd 15 48 04 be 06 1b 7e 3e
       0.4130599 -0.10406428 -0.12918122 0.24814996
000010 f5 bf a7 be 85 90 e3 3e 77 b1 01 bf 1f 3e ec 3e
       -0.3276364 0.44446197 -0.50661415 0.46141145
000020 07 10 09 3d e1 c1 b4 3d cd 9f db be ba c3 62 3e
       0.03346255 0.08826042 -0.42895356 0.22144976
000030 b5 84 94 be 11 5a 95 3e 91 5e d1 3e 26 03 a6 3e
       -0.29007497 0.29170278 0.4089246 0.32424277
000040 e7 cc d4 3e 2b 92 d1 be 70 dc e1 bd e8 41 37 bf
       0.41562578 -0.4093183 -0.11028373 -0.7158494
000050 4f 04 ba bd 7b 28 b8 3e 9e b1 99 be b4 0d 1a bf
       -0.09082853 0.35968384 -0.30018324 -0.6017716
000060 af 75 02 3f fa 31 01 3f 66 4c 07 be 48 eb 41 be
       0.5096082 0.50466883 -0.13212737 -0.18937409
000070 fc c4 86 3d f6 04 44 3d 41 0d ae be 68 1c 0f bf
       0.065805405 0.047856294 -0.33994487 -0.5590272
000080 fa 23 5f 3e bd 8e a6 be 3b 55 94 be b4 d5 9c 3e
       0.21791068 -0.32530776 -0.28971276 0.30631793
000090 e9 2c 83 be 1d c9 54 3e b3 c0 45 3e e6 a9 82 bd
       -0.256202 0.20779844 0.1931179 -0.06380062
0000a0 2d 0c 06 3e 36 96 53 be c7 42 35 3e bd 17 8c 3e
       0.13090582 -0.2066277 0.17701255 0.2736186
0000b0 67 b8 bb 3e 86 0c 35 be f6 7a e4 bc de 7a cc 3e
       0.36664125 -0.17680559 -0.027890664 0.3993749
0000c0 04 c8 6e 3e 38 cb c3 3e 85 ba 83 be 2b 9f 42 3e
       0.23318487 0.3824098 -0.2572824 0.1900603
0000d0 47 cc 91 3e 89 b9 a4 be 1b 58 53 3e 69 ff 2a 3e
       0.28476164 -0.32172802 0.20639078 0.16698994
0000e0 2a 33 47 be 98 cb 7c be c9 0d 4b bb 70 3e 9f bd
       -0.19453111 -0.2468704 -0.0030983558 -0.07775581
0000f0 a1 1e b9 3e ea 30 33 be 95 3d 5a be 10 a6 05 3e
       0.3615618 -0.17499128 -0.21312554 0.13051629
000100 b9 0a 13 be 70 27 96 3e 78 00 81 bd d1 f9 73 bd
       -0.14359559 0.29326963 -0.062989175 -0.059564415
000110 11 18 15 3e ed 15 39 3d c1 c0 38 be 20 3a e1 3d
       0.14559962 0.045186926 -0.1804228 0.109974146
000120 46 79 e7 bd d5 39 a5 3c ed 18 42 be 7b be 12 be
       -0.11302428 0.020169178 -0.18954821 -0.14330475
000130 50 eb 9e 3e c1 95 db 3b ad d3 58 3e 1b 12 30 3d
       0.31038904 0.0067012017 0.21174498 0.042986017
000140 e9 ac 11 3e 13 11 6f 3d df 6b 5f 3e 9a c9 2b bd
       0.14226116 0.058365893 0.21818493 -0.04194031
000150 a5 9a 2a be 46 7a 80 3e fc 19 69 be 57 59 85 be
       -0.16660555 0.25093287 -0.22763819 -0.26044723
000160 65 77 2f 3e 81 1a f9 3d 7b 32 a2 3d c9 b7 c5 3d
       0.17135389 0.12163258 0.07919785 0.09654195
000170 38 10 3f bd f8 1e c2 3e e0 3d ce bd 05 2e 87 be
       -0.046646327 0.37914252 -0.100703955 -0.26402298
000180 39 41 72 be aa 72 32 3e ff 1d c6 3d b8 66 1b 3c
       -0.23657693 0.17426553 0.0967369 0.009484939
000190 c4 6d 2a 3e b2 a1 1e 3e 52 96 45 be 85 5c e9 3d
       0.16643435 0.1549137 -0.19295624 0.113946
0001a0 f6 64 ec bd 2e 23 78 3e b6 a6 e1 bd ad dc 07 be
       -0.11542694 0.2423217 -0.11018126 -0.13267775
0001b0 be be dc 3d ae f3 ff bb f4 87 f5 3d 41 0a 13 be
       0.10778569 -0.0078110313 0.119888216 -0.1435938
0001c0 9a 68 91 3d f9 37 15 3e ab 58 62 3e 2a 8b fb bd
       0.07100029 0.14572133 0.22104137 -0.12282403
0001d0 55 72 b8 be 52 0e 9f 3e 4d 0b 37 be d6 20 21 be
       -0.36024728 0.31065613 -0.17875405 -0.15735182
0001e0 11 4e 86 3e 81 b8 40 3e 7b 6e 2d 3e aa c5 28 3e
       0.26231435 0.18820383 0.16936676 0.16481653
0001f0 81 38 0d be b7 9d 30 3e 35 55 1b be ad 6e 0a be
       -0.13791086 0.17247663 -0.15169223 -0.13518782
000200 89 e9 56 be 6b 32 c0 3e 90 92 31 3d eb 43 d4 be
       -0.20987524 0.37538466 0.043352664 -0.41458067
000210 53 87 0c 3e 67 42 d9 3d db 4c 5a bd 41 07 40 3e
       0.13723497 0.10608368 -0.05329595 0.18752767
000220 e5 93 ae be 0d 5d cc 3d 42 51 85 be cc 14 6a be
       -0.3409721 0.099786855 -0.26038557 -0.22859496
000230 f0 4e af 3e 03 17 86 3e 1a 06 bb 3e a5 f8 45 bc
       0.34239912 0.26189432 0.36528093 -0.012083207
000240 83 6f b4 3d a0 eb e5 bd 6b 1b a0 3e ac 3f a2 be
       0.08810332 -0.112265825 0.31270918 -0.31689203
000250 98 98 ed be 6a ed 97 3d 96 40 a8 be a4 14 36 be
       -0.46405482 0.0741833 -0.32861775 -0.17781311
000260 9e a6 d0 3e f6 8b b1 3e 30 dd 96 3e 7f a7 cb 3e
       0.4075212 0.34677094 0.29465628 0.39776227
000270 e2 f7 07 be f6 f9 80 3e 34 c0 30 be 6b dc 8e be
       -0.13278154 0.25190705 -0.1726082 -0.2790254
000280 0e 54 a4 be 74 27 e8 3d 50 a1 6d 3e 5b 66 b7 be
       -0.3209538 0.1133565 0.23206067 -0.3582028
000290 02 d5 8d 3e ca 45 a8 3e b6 64 35 be 94 80 15 3e
       0.27701575 0.32865745 -0.177142 0.1459983
0002a0 86 34 b2 be 9e af 22 3e 06 5b a9 be be 64 68 be
       -0.34805697 0.15887305 -0.33077258 -0.2269468
0002b0 71 9b 9b 3e 19 7d c5 3e 9e c0 e1 3e ed f5 24 be
       0.3039203 0.38572004 0.44092268 -0.16109438
0002c0 ee 10 e3 3d 69 c3 82 3b 82 f0 56 3e f7 fd 4c be
       0.110872135 0.00399058 0.20990184 -0.20018755
0002d0 00 05 e6 be 10 9a 1d 3e 40 2c 98 be 2e 00 b0 be
       -0.4492569 0.15390801 -0.2972126 -0.34375137
0002e0 e6 e1 b3 3e 03 65 ac 3e d3 7a c1 3e 2d 3c e2 3e
       0.35133284 0.33670816 0.3778902 0.44186535
0002f0 78 8e 37 3a 06 8d 77 3e 8b e2 24 be ad 55 ee bd
       0.00070021255 0.2417489 -0.16102044 -0.11637435
000300 3b 06 52 3e b7 56 e5 bd 59 09 bc be 4c 2c 59 3e
       0.20510189 -0.1119818 -0.36725882 0.21208304
000310 d9 5e 8c bd 8f f8 7d bd 83 58 34 3e d6 56 31 be
       -0.06854028 -0.062004622 0.1761189 -0.17318282
000320 91 ff 18 be 94 8a cf bd 21 32 8f bd 4f c8 e9 3d
       -0.14941241 -0.101338536 -0.06991983 0.11415159
000330 34 26 aa 3d f1 dc 8f 3d 7a 4d 28 3d 68 4a 95 3e
       0.08308068 0.07024563 0.041089512 0.2915833
000340 0b 7d 36 3e e0 41 c5 3e 26 14 1b be 29 82 20 3e
       0.17821138 0.3852682 -0.15144405 0.15674652
000350 32 f6 d9 3d 34 9a 35 be b8 8b e5 bb 71 49 7c 3d
       0.10642661 -0.17734605 -0.007005181 0.061593477
000360 e0 43 10 3d 3c f9 9f bd 7a fb 91 bd 35 8e c0 bc
       0.03522098 -0.078112096 -0.071280435 -0.02350531
000370 66 a1 75 3e f3 d0 9e 3d 2c 98 10 be 2d ae 95 bc
       0.2398735 0.07754698 -0.14120549 -0.01827153
000380 81 53 b9 3d 81 f2 80 bd 52 f5 6e bc 5a d1 7a 3e
       0.0904913 -0.06296254 -0.014584856 0.24493924
000390 56 2f 8c 3e 0f c2 b6 3e 1a 5d 18 be 04 97 a2 3d
       0.27379864 0.3569493 -0.14879265 0.0793896
0003a0 f3 dd 9e bc 56 48 a3 bd a2 af 59 bd e1 c4 cf bc
       -0.019392943 -0.07972781 -0.053146012 -0.025362434
0003b0 06 29 9c be d4 c8 40 be f1 8d 63 3e 43 6c 1a bd
       -0.30500048 -0.1882661 0.22222115 -0.037700903
0003c0 5b db bd 3e 7b ba 0f be a9 20 38 3e e7 dc 70 3d
       0.37081417 -0.1403598 0.17981209 0.05880442
0003d0 d0 41 a4 bd fa a5 9f 3e 87 c4 63 bd b3 2c a0 bd
       -0.08020365 0.31181318 -0.055607345 -0.07821026
0003e0 06 16 5b 3e 51 b3 b0 bd 03 ad 89 be 07 44 bb bd
       0.2139512 -0.08627952 -0.2688981 -0.091438346
0003f0 b2 5d 63 be 43 ea 10 3e a4 d0 4a be dc fb c3 be
       -0.2220371 0.14151864 -0.19806153 -0.3827809

fc.bias f4 [100]
000000 0c f0 29 3e d0 a4 78 3e 49 b5 a0 be 69 86 ef bc
       0.16595477 0.24281621 -0.3138831 -0.029238896
000010 44 0f a4 bd ae 45 84 bd 7f 45 25 bd dc c5 84 3e
       -0.08010724 -0.06458603 -0.04034948 0.25932205
000020 b3 e3 08 be 70 c1 1d be 5d 97 d4 bd 29 54 96 be
       -0.1336811 -0.15405822 -0.10380433 -0.29361084
000030 e1 31 b4 be f9 f6 3f be 3a 35 2d be 8f df 8b bd
       -0.35194305 -0.18746556 -0.16914836 -0.0682975
000040 59 6e 2d be 95 27 e6 bd ef d9 2d be 1e 45 d9 bc
       -0.16936626 -0.112380184 -0.16977666 -0.026522215
000050 06 25 2b be 16 24 9b 3c 29 d1 0d 3c 30 72 a1 bd
       -0.16713342 0.018938106 0.008655825 -0.07883108
000060 ea 74 5f bd ea f9 02 bd 4b 83 c6 bd 25 44 45 be
       -0.054554857 -0.031976618 -0.09693011 -0.19264276
000070 c3 3b 9a be 9f ea 46 bd c0 7f 7b bb 62 20 1f be
       -0.3012372 -0.048563596 -0.0038375705 -0.15539697
000080 3f 0b a0 be 47 0b a8 be a8 42 c0 bb 7c 0d 3a be
       -0.3125858 -0.32821104 -0.005867321 -0.18169206
000090 4c 69 89 be ff 29 01 bd 1d 79 fb 3c b5 70 32 be
       -0.26838148 -0.03153419 0.0306974 -0.17425807
0000a0 2f 03 69 bd ff 5b 0a 3c a8 33 e1 bd 81 dc 6c be
       -0.0568878 0.008444785 -0.10996181 -0.2313099
0000b0 ba 5f 42 be f9 6b 9e bd 32 d7 e8 3c 59 7b 43 be
       -0.1898183 -0.07735438 0.028422926 -0.19090022
0000c0 35 8e 51 be 71 df 5b be 01 38 dc 3c d2 39 34 bd
       -0.20464404 -0.21471955 0.026882173 -0.044000454
0000d0 38 22 14 bd 75 98 cf bc 11 c1 ad bd 2f 07 d2 3c
       -0.036165446 -0.025341252 -0.0848409 0.025638191
0000e0 82 fd 78 be 37 b4 9e bd be 21 9c be 80 e6 71 be
       -0.24315456 -0.07749217 -0.30494493 -0.23623085
0000f0 eb 54 01 bd 5f fb 7b be 50 f4 7b be ed 77 90 be
       -0.031575125 -0.24607609 -0.24604917 -0.28216496
000100 2d 0a 9f bd d8 a6 63 be 1f 9d b3 3c a7 da ac 3d
       -0.07765613 -0.22231615 0.021925507 0.08440142
000110 2b d8 9a 3c af 66 e8 bb e3 8d 28 3d 31 1b 06 bc
       0.018901905 -0.007092319 0.04115094 -0.008185194
000120 f4 09 cf bd 0e 70 df bd c1 6d 17 3e 2f ab 45 be
       -0.1010932 -0.109100446 0.14787962 -0.19303583
000130 f1 c0 59 bd ed 83 54 3e 14 c0 9b 3d 58 19 da 3d
       -0.05316252 0.2075345 0.07604995 0.10649365
000140 98 5e 92 3e 55 3d 3e bc c8 d4 7b 3e 58 7a 31 3e
       0.28587794 -0.011611302 0.24592888 0.17331827
000150 d1 01 53 3e 7b 23 d5 bd 1c af 20 bd 96 5d 61 bd
       0.20606162 -0.10407158 -0.039229497 -0.05502089
000160 da bc 90 be 57 df f3 bd 70 c4 4e be 30 fa b6 bd
       -0.28269082 -0.11907833 -0.20192122 -0.08934438
000170 7f dc 80 be 4c c3 22 be 4e 50 4e bd e8 96 27 3d
       -0.25168225 -0.15894812 -0.050369553 0.0409154
000180 b0 73 36 be 26 1a 6e 3c 6f ea f8 bc 6d 67 7e bb
       -0.17817569 0.014532601 -0.030385224 -0.003881897
