src/assets/trained/mt3/model.pth (torch, 91831 bytes, 7 tensors)

embedding.weight f4 [100, 64]
0	0xbf687841	-0.9080849
1	0x3f7b921c	0.9826982
2	0x3f45af6a	0.77220786
3	0x3e534788	0.20632756
4	0xbd92e7bf	-0.07173108
5	0x3e3f9068	0.1870743
6	0x3dd9831d	0.10620711
7	0x3fa347b3	1.2756256
8	0x3f0669a7	0.5250496
9	0x4020ad5e	2.5105815
10	0x3fbdf3d5	1.4840037
11	0xbed88d11	-0.42295125
12	0xbf2db390	-0.67852116
13	0xbeffa7b9	-0.4993265
14	0x3f2e7024	0.68139863
15	0xbf28db67	-0.6595978
16	0xbf4d508b	-0.80201024
17	0x3e6f8c33	0.23393326
18	0xbe799c52	-0.24376038
19	0x3d878bf1	0.066184886
20	0x3e788c6e	0.2427232
21	0x3e5afa45	0.21384533
22	0xbf996528	-1.1983995
23	0x3f2cdad4	0.67521405
24	0xbf712c8a	-0.94208586
25	0x3f156ea0	0.58371925
26	0xbf11e98b	-0.56996983
27	0xbf390a69	-0.7228151
28	0xbf8c0882	-1.0940096
29	0x3faf1b37	1.368018
30	0xbfa83046	-1.3139732
31	0x3f365e88	0.71237993
32	0xbf9786b1	-1.183798
33	0xbf6d9d0c	-0.9281776
34	0xbe951816	-0.2911994
35	0xbe8c0a02	-0.27351385
36	0xbeb8c61c	-0.36088645
37	0x402486a2	2.5707173
38	0xbff28b7e	-1.894882
39	0xbf4002f5	-0.7500451
40	0xbf1e49a6	-0.6183113
41	0x3f10fbfe	0.5663451
42	0x3eba4675	0.3638188
43	0x3e2f0364	0.17091137
44	0x3f575585	0.8411487
45	0xbf54f00b	-0.83178777
46	0xbeaefb28	-0.34175992
47	0x3fa9a9a9	1.3254901
48	0xbf68030c	-0.9062965
49	0xbe896f43	-0.26842698
50	0x3f42cc0f	0.7609262
51	0x40234045	2.5507977
52	0xbe820c50	-0.2540002
53	0xbf889cee	-1.0672891
54	0x3fc4c124	1.5371442
55	0xbbcbbfb4	-0.006217921
56	0x3f9719bb	1.1804727
57	0xbdafefc5	-0.08590654
58	0xbfd8d378	-1.6939535
59	0xbf4aa042	-0.79150784
60	0x3f612d4f	0.8795976
61	0x3ee289a0	0.44245625
62	0xbf05fe6c	-0.5234134
63	0x401b8265	2.4298337
64	0x3f01baaa	0.5067545
65	0xbe829648	-0.2550528
66	0xbfafc0af	-1.3730677
67	0x3f16467e	0.5870131
68	0xbf3694c3	-0.7132074
69	0xbd29b479	-0.041431878
70	0xbf03581f	-0.5130634
71	0xbf2a4048	-0.66504335
72	0xbf5dbd7c	-0.86617255
73	0x3fbf1d08	1.4930735
74	0xbf185905	-0.59510833
75	0x3e54a48a	0.20765892
76	0xbf91689d	-1.136005
77	0x3fbb81d7	1.4648999
78	0xbef31fb5	-0.47485128
79	0x3f34f7cc	0.7069061
80	0xc03988b0	-2.8989677
81	0xbfa82ae1	-1.3138086
82	0x3d266ac3	0.04062916
83	0x3fcd2564	1.6027036
84	0xbee8fc8b	-0.45505175
85	0xbe6b5610	-0.22982049
86	0xbf7a672e	-0.9781369
87	0xbe0be9d3	-0.13663416
88	0xbea29a02	-0.31758124
89	0xbfa7f033	-1.3120178
90	0x3ebfeff5	0.3748776
91	0x3e908eb3	0.2823387
92	0xbb8a6dc9	-0.004224513
93	0x3cab8cec	0.02094122
94	0xc019d3dd	-2.403556
95	0xbf8372b3	-1.0269378
96	0xbe3ac3de	-0.1823878
97	0xbe75f845	-0.24020489
98	0x3f2bb8fd	0.67079145
99	0xbe031218	-0.12799871
100	0x3eb2f1e2	0.34950167
101	0xbfe06c9a	-1.7533143
102	0xbe4dc9f7	-0.20096575
103	0xbf86179a	-1.0475953
104	0xbd0d89a8	-0.034555107
105	0x3f180159	0.59377056
106	0x3ed2e538	0.41190505
107	0x3fe8d7fc	1.8190913
108	0x3fe96839	1.8234931
109	0xbf30ea3e	-0.69107425
110	0x3d9c00e0	0.076173544
111	0x3f604952	0.8761188
112	0x3f84ecbf	1.0384749
113	0x3f05ea78	0.52310896
114	0xbf1042ee	-0.56352127
115	0x3ec50203	0.38478097
116	0x3e293974	0.16525823
117	0x3eb4ff83	0.3535119
118	0xbf64563a	-0.8919407
119	0x3f9284b7	1.1446751
120	0x3ddc53c8	0.107581675
121	0x40090511	2.1409342
122	0xbd19c31a	-0.03753958
123	0xbf8bd259	-1.0923568
124	0xc011b780	-2.276825
125	0xbff760f4	-1.9326463
126	0x3f0dea05	0.5543521
127	0x3eae4213	0.34034786
128	0xbefe9b67	-0.49727938
129	0xbf1f7f28	-0.623034
130	0x3f7b6037	0.9819369
131	0xbfbc2a65	-1.4700438
132	0x3f074a41	0.5284768
133	0x3cbb4fb3	0.022865152
134	0x3f97ff86	1.1874855
135	0x3f2c1a25	0.67227393
136	0xbe2a8ee9	-0.16656078
137	0x3f89555f	1.0729178
138	0x3f9ed889	1.2409831
139	0x3fa59bdd	1.2938191
140	0x3f20ec78	0.6286082
141	0x3f787a58	0.9706168
142	0x3e9c46b1	0.30522683
143	0x3d99754d	0.074930765
144	0x3e2ec1fa	0.17066184
145	0x3f41b995	0.756738
146	0x3f0f7276	0.5603403
147	0x3e817953	0.25287876
148	0x3f68fd28	0.91011286
149	0x3fa54e3e	1.2914503
150	0xbe63e7d1	-0.222564
151	0x3ea2dcdb	0.31809124
152	0xbf499faa	-0.78759253
153	0x3e827d88	0.25486398
154	0xbf83f9f3	-1.0310653
155	0x3f221dbb	0.63326615
156	0x3f4afb01	0.7928925
157	0xbf561883	-0.8363115
158	0xbf13e395	-0.5776914
159	0x3e7b27e5	0.24526937
160	0xc02efbe0	-2.7341232
161	0x3cc144b2	0.023592327
162	0xbe8eba91	-0.27876714
163	0x3f893d7f	1.0721892
164	0x3f9876db	1.1911272
165	0xbed2c1fa	-0.41163617
166	0x3fa8cac8	1.3186884
167	0xbea9750d	-0.33097115
168	0xbf27c779	-0.65538746
169	0x3f0ab73c	0.54185843
170	0x3dcefd14	0.101068646
171	0x3f49e796	0.78869
172	0x3e1efdcd	0.15526505
173	0xbf6d2244	-0.9263041
174	0x3f537b81	0.82610327
175	0x3ea96028	0.33081174
176	0x3f672b19	0.90300137
177	0xbee206f3	-0.44145927
178	0xbe72c7e7	-0.23709069
179	0xbe7a07bb	-0.24417011
180	0x3e3104f0	0.1728704
181	0xbcaef09e	-0.02135497
182	0x3f610f74	0.87914205
183	0x3fa7c4fd	1.3106991
184	0x3f9cecfb	1.2259821
185	0x3f982c58	1.1888533
186	0x3fdf6e58	1.7455549
187	0xbff3b0d6	-1.9038341
188	0xbfa6b005	-1.3022467
189	0x3f4af429	0.7927881
190	0xc03614a6	-2.8450103
191	0xc025c395	-2.5900624
192	0x3fa4fc12	1.2889426
193	0xbed54e17	-0.4166114
194	0xbfe7c5b0	-1.8107204
195	0xbe050a8e	-0.12992308
196	0xbfc714c2	-1.555321
197	0xbf632744	-0.8873179
198	0x40040548	2.0628223
199	0x3f2cc6b6	0.6749071
200	0xbf36bdc8	-0.71383333
201	0xbf8b0ffb	-1.0864252
202	0xbf12ce84	-0.5734637
203	0x3f001fe1	0.50048643
204	0x3f6d2575	0.9263528
205	0x3e8c41ce	0.27393955
206	0x3f5f95c1	0.8733788
207	0x3f012aa0	0.50455666
208	0x3ea3c56c	0.31986558
209	0xbf61900b	-0.8811042
210	0xc0170afa	-2.360045
211	0x3f2beb1c	0.67155623
212	0xbead3d96	-0.3383605
213	0xbeea921a	-0.45814592
214	0x3f30f08b	0.6911704
215	0xbf2acc79	-0.6671825
216	0x40149eda	2.3221955
217	0x3fb8d9ae	1.444143
218	0x40511d55	3.2674153
219	0xbf864fe9	-1.0493137
220	0xbf2c7638	-0.6736789
221	0x3f59a382	0.8501512
222	0x3fad2f01	1.352997
223	0xbf67c447	-0.9053387
224	0x3fb83d03	1.4393619
225	0x3f942a11	1.1575338
226	0x3e31e295	0.1737159
227	0xbfc7aca7	-1.5599564
228	0x3db64e56	0.0890166
229	0x3d5cb920	0.053887486
230	0x3e585f7f	0.21130179
231	0xbf3e8d37	-0.74434227
232	0x401b5b6b	2.4274547
233	0x3fc0bb24	1.5057111
234	0xbfb80a8c	-1.4378219
235	0x3c676660	0.014123529
236	0xbfa2047b	-1.2657617
237	0xbea303f5	-0.31838956
238	0x3d91fc5b	0.07128211
239	0xbd87eb15	-0.06636635
240	0xbf296e15	-0.66183597
241	0xbf72a5eb	-0.9478442
242	0xbef71090	-0.48254824
243	0xbc735cbd	-0.0148536535
244	0xbeefd77e	-0.46844095
245	0x3fb9c7bd	1.451408
246	0x3f9c3db3	1.2206329
247	0x3f6470b5	0.8923448
248	0x3ef889b4	0.4854256
249	0xbf588682	-0.8458024
250	0xbf810fa2	-1.0082896
251	0x3fc95eb6	1.5732028
252	0x3cf81999	0.030285643
253	0x3e9e6d97	0.30942985
254	0x3fca4ef2	1.5805342
255	0xbf5826ef	-0.8443441

lstm.weight_ih_l0 f4 [128, 64]
0	0xbe415947	-0.18881713
1	0x3d079f7f	0.03311109
2	0x3d0dbda1	0.034604672
3	0x3d9106b7	0.07081359
4	0x3d6a455b	0.05719505
5	0x3d0aa51e	0.033848874
6	0x3e5fa9c1	0.218421
7	0xbddc96be	-0.10770939
8	0x3b45932a	0.003014753
9	0x3cb877a4	0.022517987
10	0x3d04b42a	0.03239838
11	0x3df7f0f9	0.12106509
12	0xbd8112ed	-0.06302438
13	0xbdc41414	-0.09574142
14	0x3dccf26f	0.10007178
15	0xbd455134	-0.048173144
16	0x3e32d826	0.17465267
17	0xbd1298d9	-0.035790298
18	0x3d693c83	0.056942474
19	0x3dfc7bf2	0.12328328
20	0x3d9e8c1a	0.07741566
21	0xbe01da9b	-0.12681048
22	0xbdd8110f	-0.10550129
23	0x3dcb167d	0.09916399
24	0xbd788eb3	-0.060682964
25	0xbe0b6dbf	-0.13616084
26	0x3d647707	0.055777576
27	0xbddf1696	-0.1089298
28	0xbd3eefb0	-0.046615303
29	0xbd937397	-0.071997814
30	0xbc62139c	-0.013798621
31	0xbcae1442	-0.021249894
32	0xbd0e6e4d	-0.03477316
33	0x3d8d4a40	0.06898928
34	0x3e4af581	0.19820215
35	0x3d93974c	0.07206592
36	0xbda568ad	-0.08076606
37	0x3ddfd9ce	0.10930215
38	0xbe528e33	-0.20562057
39	0x3de8e02f	0.113708846
40	0x3ced3997	0.028958125
41	0xbd119fe1	-0.035552863
42	0x3dccef4e	0.10006581
43	0x3d3d8d87	0.04627755
44	0xbe0c6719	-0.13711204
45	0xbd5fdb2b	-0.054652374
46	0xbe1fdb0c	-0.15610904
47	0xbda1c5b6	-0.078990385
48	0x3e406734	0.18789369
49	0x3e208974	0.15677434
50	0x3dd44513	0.10364737
51	0xbc46c547	-0.0121319955
52	0xbdf6abc3	-0.1204448
53	0x3e07235b	0.13197081
54	0x3e31067a	0.17287627
55	0xbd559f15	-0.052153666
56	0xbda5ecbd	-0.08101795
57	0xbd9cad8a	-0.076502874
58	0x3dd136ea	0.10215552
59	0xbd6125cc	-0.054967687
60	0x3b4e9672	0.0031522778
61	0xbd98d60e	-0.07462703
62	0x3e33b728	0.17550337
63	0x3d04564e	0.03230887
64	0x3e04e65c	0.129785
65	0x3e503f55	0.20336659
66	0x3b7a44c1	0.0038187953
67	0x3ea01f5c	0.31273925
68	0xbcaf9173	-0.02143166
69	0xbda393ef	-0.079872005
70	0xbd9aa57d	-0.07551096
71	0x3ddd31a8	0.10800487
72	0x3e4a25f4	0.1974104
73	0xbde4f2a3	-0.11179092
74	0x3e12f3a9	0.14350761
75	0xbc182a99	-0.0092875
76	0x3e14a939	0.14517678
77	0xbda75b25	-0.08171681
78	0xbcce7856	-0.025203865
79	0x3e04be3d	0.12963195
80	0xbe4b5639	-0.1985711
81	0x3cdec891	0.027195247
82	0x3e1b1a3c	0.15146726
83	0xbda32c9e	-0.079674944
84	0x3e549513	0.20759992
85	0xbc1a4a39	-0.00941711
86	0xbd194b14	-0.037425116
87	0x3df61c49	0.12017114
88	0x3d30199e	0.04299318
89	0xbe8af5d5	-0.2714068
90	0x3e12cd5d	0.14336152
91	0x3cc0da0c	0.023541473
92	0xbe088e46	-0.13335523
93	0xbe687e47	-0.22704421
94	0x3d8e060b	0.06934746
95	0xbe02daf2	-0.12778834
96	0x3bb2765e	0.0054462394
97	0xbdd6b182	-0.10483076
98	0x3e922897	0.28546593
99	0x3e6391ff	0.22223662
100	0x3dc1dbab	0.094657265
101	0xbd5cc745	-0.053900976
102	0xbbfed464	-0.007776784
103	0x3e49bd35	0.19701083
104	0xbe3377c5	-0.17526157
105	0x3e838757	0.25689194
106	0x3ec74100	0.3891678
107	0x3dda2770	0.10652053
108	0x3e50f692	0.20406559
109	0xbd2e6085	-0.042572517
110	0xbe858010	-0.26074266
111	0x3e3ae124	0.18249947
112	0xbe070d5f	-0.13188694
113	0xbe7978d8	-0.24362504
114	0xbe4a522e	-0.19757912
115	0xbdd9067b	-0.10596939
116	0x3e46c1ec	0.19409913
117	0x3d9af0d1	0.07565463
118	0x3e215b8a	0.15757576
119	0xbd8b9318	-0.06815165
120	0x3e244ce8	0.16044962
121	0x3e8563f7	0.2605283
122	0xbd3f0181	-0.046632294
123	0xbe09f169	-0.13470997
124	0xbd9e089d	-0.077164866
125	0x3d85c8d8	0.065324485
126	0x3baaafe1	0.0052089547
127	0xbe48bcb8	-0.1960324
128	0x3df0a451	0.11750091
129	0x3e132ed3	0.14373331
130	0x3dde3270	0.10849464
131	0xbd485da0	-0.048917413
132	0xbe092ed5	-0.13396771
133	0xbd8f0f5b	-0.06985351
134	0xbd6a2e7f	-0.05717325
135	0x3d0a0537	0.03369638
136	0xbdd299f2	-0.10283269
137	0x3e2461ae	0.16052887
138	0xbe8269a5	-0.25471225
139	0xbd667a0c	-0.056268737
140	0xbe2c1ffc	-0.16809076
141	0xbe18169b	-0.14852373
142	0xbde99aac	-0.114064544
143	0xbb825fd6	-0.0039787097
144	0x3dc13099	0.094330974
145	0xbe2a205f	-0.16613911
146	0xbe856572	-0.2605396
147	0x3e2149d7	0.15750824
148	0xbe230028	-0.15918028
149	0xbe97e0a4	-0.29663575
150	0x3da56afe	0.08077048
151	0xbe23ede4	-0.16008717
152	0x3e0fa523	0.14027838
153	0xbe20501a	-0.15655556
154	0x3da043dc	0.07825443
155	0x3df9a08a	0.121888235
156	0xbdf4e0de	-0.119569525
157	0x3e2069ab	0.15665309
158	0xbe4427d6	-0.19155821
159	0xbdecd3ae	-0.11563812
160	0x3e05fa74	0.13083822
161	0xbdc6568c	-0.09684476
162	0x3e44280e	0.19155905
163	0xbd1f16d8	-0.038840145
164	0xbd91c3a0	-0.07117391
165	0x3d2f10f8	0.042740792
166	0x3e0afb31	0.13572384
167	0x3e1f4bbe	0.15556237
168	0xbe9a5aca	-0.30147392
169	0x3e098ba6	0.13432178
170	0x3e5391e1	0.20661117
171	0xbe2bfe86	-0.16796312
172	0x3e90dcce	0.2829346
173	0xbcf359d4	-0.02970592
174	0x3e248fd2	0.16070488
175	0x3e01ea51	0.12687041
176	0x3e030e26	0.12798366
177	0xbe1b0dbf	-0.15141962
178	0xbdbddc50	-0.09270537
179	0x3dcbc658	0.099499404
180	0xbde1515f	-0.110018484
181	0x3e3aea58	0.18253458
182	0x3e197fbc	0.14990133
183	0x3cf1beb1	0.029509874
184	0xbd6e1388	-0.058124095
185	0x3d36df14	0.044646338
186	0xbe82e2ab	-0.2556356
187	0x3d3ccdeb	0.046094816
188	0x3dcc78ef	0.09984004
189	0xbdd9faf8	-0.106435716
190	0x3cbc39ac	0.022976719
191	0x3e357510	0.17720437
192	0xbe982b01	-0.2972031
193	0x3d64e7f8	0.055885285
194	0xbe571886	-0.21005449
195	0xbde55aae	-0.111989364
196	0xbe467ae3	-0.19382815
197	0x3e9665ea	0.2937463
198	0x3dc64eb7	0.096829824
199	0xbd9e44a9	-0.0772794
200	0x3e3a4b4c	0.18192786
201	0xbdb40913	-0.08790793
202	0xbc8c400f	-0.01712039
203	0x3da5d2ea	0.08096869
204	0xbe23180e	-0.15927145
205	0xbdf32429	-0.118721314
206	0xbe526aa3	-0.20548491
207	0x3e0adfe1	0.13561966
208	0xbd927514	-0.07151237
209	0x3dcb5a1d	0.09929297
210	0xbec11a68	-0.3771546
211	0x3d9f8776	0.07789509
212	0x3cbfc01f	0.02340704
213	0x3dbcef17	0.0922529
214	0xbe016806	-0.12637338
215	0xbe9f1026	-0.31067008
216	0xbda26a2d	-0.07930408
217	0xbe987271	-0.29774812
218	0xbe81d531	-0.25357965
219	0x3dac5c7d	0.08416078
220	0x3e28247c	0.16420168
221	0x3e5e67b2	0.21719244
222	0x3d8f5933	0.06999435
223	0xbdce0c26	-0.10060911
224	0x3e31f2e8	0.17377818
225	0x3da35504	0.079752
226	0x3e23c754	0.15994006
227	0x3e79235c	0.24329895
228	0x3d28bac8	0.041193753
229	0xbe2a5413	-0.16633634
230	0xbde3aaf4	-0.11116591
231	0x3dd61b28	0.104543984
232	0xbe3743f3	-0.17897014
233	0x3c5f266a	0.0136199985
234	0xbe1d469f	-0.15358971
235	0x3de66672	0.11250009
236	0x3c34bda0	0.011031538
237	0x3e7541c7	0.23950873
238	0x3dcd04ea	0.10010703
239	0x3e203a93	0.15647344
240	0x3db89335	0.090124525
241	0x3e81c247	0.25343534
242	0xbcc6228f	-0.0241864
243	0x3e8158f7	0.25263187
244	0xbd809be5	-0.062797345
245	0x3e548fdd	0.20758004
246	0xbe608959	-0.21927394
247	0x3db37a5a	0.08763571
248	0x3c556664	0.0130249
249	0x3d880823	0.06642177
250	0xbeb32b6b	-0.34994063
251	0xbd4ee2d8	-0.050509304
252	0xbe1fb833	-0.1559761
253	0xbe066754	-0.13125354
254	0x3d7920de	0.06082236
255	0xbe6bbcb9	-0.2302121

lstm.weight_hh_l0 f4 [128, 32]
0	0xbd338919	-0.04383192
1	0xbdcaa79d	-0.09895251
2	0xbdee2810	-0.11628735
3	0xbe07ea49	-0.13272966
4	0xbe0f38c8	-0.13986504
5	0xbe624e80	-0.22100258
6	0x3d0f1dac	0.034940407
7	0xbd1bda6c	-0.0380501
8	0x3ccce566	0.02501173
9	0x3da141d8	0.07873887
10	0x3d3d7c96	0.046261393
11	0xbdd7852d	-0.10523448
12	0xbe2853ca	-0.16438213
13	0xbdf0714a	-0.11740358
14	0x3dcac505	0.0990086
15	0xbe36e046	-0.17858991
16	0xbd2cdbe2	-0.042201884
17	0x3b87100c	0.004121786
18	0x3e33778d	0.17526074
19	0x3e3d5d5c	0.18492645
20	0xbcb266bd	-0.021777505
21	0xbe1022cd	-0.14075775
22	0x3e1171b3	0.14203529
23	0xbdfcc175	-0.123415865
24	0xbdaa3db9	-0.08312554
25	0xbd81544d	-0.06314907
26	0xbb57d074	-0.0032930644
27	0x3e0c2329	0.13685288
28	0x3e11a1cc	0.14221877
29	0x3e1da3ed	0.15394564
30	0x3c2bf811	0.010496155
31	0xbdc02942	-0.09382869
32	0xbeb39ce7	-0.35080644
33	0xbdb601a8	-0.08887035
34	0xbcd48d96	-0.02594642
35	0x3c7c75c5	0.015408938
36	0xbe247585	-0.16060455
37	0xbe949dfb	-0.2902678
38	0xbe062159	-0.13098659
39	0xbe5cabb5	-0.21549876
40	0xbe1a9975	-0.15097602
41	0xbd1fa312	-0.038973875
42	0x3ea5acb1	0.32358316
43	0x3d7225ba	0.05911801
44	0xbe26232d	-0.16224356
45	0xbd18be1c	-0.037290677
46	0x3e3ca91d	0.18423887
47	0xbe4c9e79	-0.19982328
48	0xbdee036f	-0.11621749
49	0xbcb265c0	-0.021777034
50	0x3e7bf8e6	0.24606666
51	0xbd873712	-0.06602301
52	0x3e666c0e	0.22502157
53	0xbe3b6918	-0.18301809
54	0x3e0c054c	0.13673896
55	0xbe5dc873	-0.21658497
56	0x3e06e99c	0.13175052
57	0xbda7694b	-0.0817438
58	0xbe55f607	-0.20894633
59	0xbea8b6e2	-0.3295203
60	0x3d2baff1	0.041915838
61	0xbe2a4ac6	-0.16630086
62	0xbdfe10c3	-0.12405541
63	0x3db1a12a	0.08673318
64	0xbe0e9b05	-0.13926323
65	0xbda1520c	-0.07876977
66	0xbe6989eb	-0.22806518
67	0x3e5e324b	0.21698873
68	0xbd944004	-0.072387725
69	0xbea40fc1	-0.3204327
70	0xbdbf0d46	-0.093287036
71	0x3df2ad98	0.11849517
72	0x3dc92304	0.09821132
73	0x3e31302e	0.17303535
74	0x3d04af47	0.03239372
75	0x3e56ace9	0.20964397
76	0xbeac2100	-0.33618927
77	0xbe8213bc	-0.2540568
78	0x3e2e0287	0.16993152
79	0xbdf2af7f	-0.118498795
80	0xbc8093cd	-0.015695477
81	0x3e0debf9	0.13859548
82	0x3dc682ba	0.09692903
83	0x3e188d5a	0.14897671
84	0x3e5dc205	0.21656044
85	0xbe08ba9e	-0.13352439
86	0xbd5d3e74	-0.054014638
87	0x3d3cbc51	0.04607803
88	0x3e3cf5e2	0.18453172
89	0xbe26bcb1	-0.16282918
90	0xbe9b8061	-0.30371383
91	0x3da9114f	0.082552545
92	0x3cdf13fe	0.027231213
93	0xbcaec60b	-0.021334669
94	0xbb0283d0	-0.0019914992
95	0x3ccc6712	0.024951492
96	0xbe1b76c3	-0.15182023
97	0x3dddce8b	0.108304106
98	0xbb883686	-0.0041568903
99	0x3de9a58e	0.1140853
100	0xbd034b1c	-0.03205405
101	0xbeb058e4	-0.34442818
102	0xbc38e779	-0.011285656
103	0xbca68ba3	-0.020330256
104	0xbd5c278b	-0.05374865
105	0x3d8a8d54	0.067652375
106	0x3e9435d4	0.28947318
107	0xbd2bf747	-0.04198387
108	0xbd5f9527	-0.054585602
109	0xbe8b9503	-0.27262124
110	0x3df6d7e0	0.12052894
111	0xbd06e459	-0.032932613
112	0xbeb9edc1	-0.36314204
113	0xbc57c687	-0.013169891
114	0x3e13e081	0.1444111
115	0x3e56b288	0.20966542
116	0x3e2220cc	0.15832824
117	0xbe91dd79	-0.28489283
118	0x3d9fbfc6	0.0780025
119	0xbe4f8a8e	-0.20267698
120	0xbe048d27	-0.1294447
121	0xbe80e50a	-0.25174743
122	0xbe882cda	-0.2659672
123	0xbcdde37b	-0.02708601
124	0xbdf97d5a	-0.12182112
125	0xbda05095	-0.0782787
126	0xbe86a1b8	-0.26295257
127	0x3d841cac	0.06450781
128	0xbbff8798	-0.0077981465
129	0x3e5ab536	0.21358189
130	0x3e063a85	0.13108261
131	0x3e455e18	0.19274175
132	0xbe7442c5	-0.23853596
133	0xbd8c7ae1	-0.06859375
134	0x3e1d42be	0.15357491
135	0xbec28ee7	-0.3799965
136	0x3d1a3800	0.037651062
137	0x3c7d9adb	0.015478815
138	0x3d54bbdf	0.05193698
139	0xbd5231d9	-0.05131707
140	0xbe68faaa	-0.22751871
141	0xbe0f72d8	-0.14008653
142	0x3e03b195	0.12860711
143	0xbd53da30	-0.05172175
144	0xbe5c98e8	-0.21542704
145	0x3d90a748	0.07063156
146	0x3db366bc	0.087598294
147	0x3e6ddbf9	0.23228444
148	0xbddb23e1	-0.10700203
149	0xbde32640	-0.1109128
150	0x3e0033a7	0.12519704
151	0xbe12fe78	-0.14354885
152	0xbd2b0edf	-0.04176223
153	0xbdb0ff22	-0.08642413
154	0xbdf1feaf	-0.11816155
155	0xbe170cdd	-0.14751
156	0xbdc70147	-0.097170405
157	0x3d82079f	0.0634911
158	0x3d34a345	0.04410102
159	0xbc4ab30e	-0.0123717915
160	0xbe603294	-0.21894294
161	0xbdd4c2be	-0.103887066
162	0x3ca7bb63	0.020475095
163	0xbdf85925	-0.12126378
164	0xbe39058e	-0.18068525
165	0xbe23554a	-0.15950504
166	0x3daaf33b	0.08347174
167	0x3cdda5f6	0.027056675
168	0x3c4119f0	0.011785969
169	0x3e5d7d5f	0.21629857
170	0x3e3f74ae	0.18696854
171	0x3e0cf9c6	0.13767156
172	0xbe1c7568	-0.15279162
173	0xbe34c76b	-0.17654197
174	0x3e8d8f31	0.2764831
175	0xbd4d7b7b	-0.05016659
176	0xbe31d45b	-0.17366163
177	0x3deb1516	0.11478631
178	0xbd802785	-0.06257538
179	0xbcb8c05a	-0.022552658
180	0xbd35a4d9	-0.044346664
181	0xbdb984a6	-0.09058504
182	0x3d989be5	0.074516095
183	0xbc9f1087	-0.01941706
184	0x3d3b9cdf	0.0458039
185	0xbe50580f	-0.20346092
186	0xbd4ac28c	-0.04950194
187	0xbe8b22f9	-0.2717512
188	0x3d950064	0.07275465
189	0x3d82ced3	0.06387105
190	0xbe68a18e	-0.22717878
191	0x3e38ddbb	0.18053333
192	0xbe6a847d	-0.22902103
193	0xbb3b3baf	-0.002856951
194	0xbcb18696	-0.02167062
195	0xbe14ed4d	-0.14543648
196	0xbe4b8fed	-0.19879122
197	0xbebe6f18	-0.37194133
198	0x3d997a84	0.07494071
199	0xbc85cffe	-0.01633453
200	0x3d456b43	0.048197996
201	0x3ead8f99	0.3389862
202	0x3e87e04c	0.26538312
203	0x3dd212cc	0.102574915
204	0xbe8dbea8	-0.27684522
205	0xbe88d068	-0.267215
206	0x3ebc7225	0.36805835
207	0xbe0e08fc	-0.13870615
208	0xbdbd5de6	-0.09246425
209	0x3da25f76	0.07928364
210	0x3e810621	0.25199988
211	0x3e92676d	0.28594533
212	0x3e8b6de6	0.27232283
213	0xbdb09460	-0.0862205
214	0x3e54731c	0.20747036
215	0xbd9f0b2e	-0.07765804
216	0x3e90b125	0.2826015
217	0xbe80d498	-0.25162196
218	0xbde22a28	-0.11043197
219	0xbe95d85b	-0.2926663
220	0x3d3d27fe	0.046180718
221	0xbdf697ba	-0.12040658
222	0xbdcdb44c	-0.100441545
223	0x3e762443	0.2403727
224	0xbe1f2109	-0.15539946
225	0xbe13dfe8	-0.14440882
226	0xbe552a86	-0.20817003
227	0x3e6e084a	0.2324535
228	0xbeb9d5f4	-0.36296046
229	0xbd949f19	-0.07256908
230	0x3e28ee2b	0.16497104
231	0xbd855112	-0.065096036
232	0x3ea16965	0.31525722
233	0x3e1b22cc	0.15149993
234	0x3df44ad3	0.11928334
235	0x3e8736df	0.2640905
236	0x3ca85c38	0.020551786
237	0xbe2d98ee	-0.1695287
238	0xbc53e7ce	-0.0129336845
239	0xbe29a7dc	-0.1656794
240	0xbe5e1a8d	-0.21689816
241	0x3dd50984	0.104022056
242	0x3e82131d	0.25405207
243	0x3cb08fbe	0.021552917
244	0xbd95366a	-0.07285769
245	0xbeb8f397	-0.36123344
246	0x3e889a8c	0.2668041
247	0xbe4dade7	-0.2008587
248	0xbdb6b860	-0.089218855
249	0xbd810d33	-0.06301346
250	0xbe057a9c	-0.13035053
251	0xbe520f21	-0.20513584
252	0x3cde9ad1	0.027173432
253	0x3e2ac538	0.16676795
254	0xbe95e767	-0.29278108
255	0x3e6e48be	0.23269936

lstm.bias_ih_l0 f4 [128]
0	0x3e63fa7d	0.22263522
1	0x3daa79b6	0.08323996
2	0x3e8346c3	0.25639924
3	0x3e55f5e2	0.20894578
4	0x3e43d693	0.19124822
5	0xbd7c45a4	-0.061589852
6	0x3e2168f5	0.15762694
7	0x3d2e9299	0.042620275
8	0x3e4a5096	0.19757304
9	0x3e11eaa1	0.1424966
10	0x3dd1969b	0.10233804
11	0x3cc53e0a	0.024077434
12	0x3e164113	0.14673261
13	0x3e52b974	0.20578557
14	0x3d9ff984	0.07811263
15	0x3b8f916d	0.00438135
16	0x3de2e5c7	0.11078983
17	0x3d12036c	0.035647795
18	0x3de35406	0.111000106
19	0x3dc5e98e	0.09663688
20	0x3e38024e	0.17969629
21	0xbde53ef7	-0.1119365
22	0x3da99fc6	0.082824275
23	0x3e21aaef	0.15787862
24	0x3e336a67	0.17521058
25	0x3e8dd6ea	0.2770303
26	0x3d69a5d5	0.057042915
27	0x3e46ea4f	0.19425319
28	0x3e85e6fa	0.26152784
29	0x3e8e8736	0.27837533
30	0x3e302b7c	0.17204088
31	0x3e7e2c3f	0.24821566
32	0x3e5f3936	0.21799168
33	0x3e57a135	0.2105759
34	0x3e0cddee	0.13756534
35	0xbd439b1a	-0.04775534
36	0x3e0c6a1a	0.1371235
37	0x3d24b6a9	0.04021326
38	0xbd9007b1	-0.07032717
39	0x3e38d057	0.18048225
40	0x3dc0554c	0.09391269
41	0x3d33a788	0.043860942
42	0xbd6fee91	-0.058577124
43	0x3e07088d	0.13186856
44	0x3c78b399	0.015179538
45	0x3e052c76	0.13005242
46	0x3d6016a0	0.054709077
47	0xbcf03348	-0.029321328
48	0x3e1b5d78	0.15172374
49	0x3bb174fc	0.005415557
50	0x3e52c960	0.20584631
51	0x3e14f6fe	0.14547345
52	0x3e4c7974	0.19968206
53	0x3e081be2	0.13291886
54	0x3e0553ad	0.13020201
55	0xbd86b614	-0.065776974
56	0xbcc7e6ce	-0.024402048
57	0xbc800c0c	-0.015630744
58	0xbab3ffe4	-0.0013732878
59	0x3cf96b2e	0.030446615
60	0xbe1cfa31	-0.15329815
61	0xbde4efa9	-0.11178524
62	0x3e2894ba	0.16462985
63	0x3de6d254	0.11270586
64	0xbd745873	-0.059654664
65	0x3e462090	0.19348359
66	0xbde4887a	-0.11158843
67	0xbdbb0b9e	-0.09133075
68	0xbdb9cb19	-0.09071941
69	0xbddd7440	-0.108131886
70	0x3e27e8a3	0.16397338
71	0x3cc72627	0.024310185
72	0xbcb344f2	-0.021883462
73	0x3e3f6970	0.18692565
74	0x3e3a755a	0.18208829
75	0xbc0674e4	-0.00820658
76	0x3d64cc80	0.05585909
77	0xbe5aac64	-0.21354824
78	0x3c181593	0.009282487
79	0xbe330107	-0.1748086
80	0xbe158394	-0.14600974
81	0xbd44916d	-0.04799025
82	0xbdc6d918	-0.09709376
83	0xbc84f6f6	-0.016231041
84	0xbd93ab14	-0.07210365
85	0xbdc87332	-0.09787597
86	0x3e296a49	0.16544451
87	0xbe563ddd	-0.20922036
88	0x3dd85f27	0.10565024
89	0xbe3e3263	-0.18573909
90	0xbe3f70e7	-0.18695413
91	0x3dcdff87	0.100585036
92	0x3e312730	0.17300105
93	0x3e10423d	0.14087768
94	0xbd5ddbe0	-0.054164767
95	0x3e148ef7	0.14507662
96	0x3e6a5d85	0.22887237
97	0x3e8bf03f	0.2733173
98	0x3e681b11	0.22666575
99	0x3d14e8a1	0.036354665
100	0xbd11b27d	-0.03557061
101	0x3dc1f149	0.094698496
102	0x3e979cda	0.29611856
103	0x3e27728b	0.16352288
104	0x3ecb7479	0.397373
105	0xbdfc6006	-0.123230025
106	0x3d7616f2	0.060080476
107	0x3d9930aa	0.07479985
108	0xbc6baae0	-0.0143840015
109	0xbd89ba56	-0.06724994
110	0x3dc413be	0.09574078
111	0x3e8b9868	0.27264714
112	0x3e2eabb4	0.17057687
113	0x3ea1263c	0.31474483
114	0xbd8ea41a	-0.06964894
115	0xbb17fbfc	-0.0023190966
116	0x3e9627c6	0.2932722
117	0xbddd2cff	-0.10799598
118	0x3d4b37b3	0.049613666
119	0x3d54e7bf	0.051978823
120	0x3ea5d0de	0.32385916
121	0xbcb1ea77	-0.021718247
122	0x3ce1d7d9	0.027568744
123	0x3e03b1c0	0.12860775
124	0x3e5c8061	0.21533348
125	0x3e883962	0.2660628
126	0xbcfbff78	-0.030761465
127	0x3e53eccb	0.20695798

lstm.bias_hh_l0 f4 [128]
0	0x3ce4d2ff	0.027932642
1	0x3ea1d13d	0.3160495
2	0x3e1d3353	0.1535161
3	0x3e9dd84c	0.30829084
4	0x3d3a3359	0.045459125
5	0x3e0759db	0.13217871
6	0x3d869340	0.065710545
7	0x3bb6cc81	0.005578578
8	0x3ec70b00	0.3887558
9	0x3df39964	0.11894491
10	0x3eb2786b	0.34857497
11	0x3e930080	0.2871132
12	0x3db87e55	0.09008471
13	0x3e47dbd5	0.19517453
14	0xbd631342	-0.055438288
15	0x3dc9aa48	0.09846932
16	0x3c8edfd1	0.017440708
17	0x3d31b39b	0.043384176
18	0x3e49ad85	0.19695099
19	0x3d877a15	0.06615082
20	0xbb86fcdc	-0.0041194987
21	0x3d5c6926	0.053811215
22	0xbc709f4e	-0.014686419
23	0x3e0e2349	0.13880648
24	0xbc028001	-0.007965089
25	0x3e478e2f	0.19487832
26	0x3dbd5241	0.09244204
27	0x3e6f1f7d	0.23351856
28	0x3ea4b84d	0.3217186
29	0x3eb3a33e	0.3508548
30	0x3dde07d5	0.108413376
31	0x3cde98ea	0.027172524
32	0x3e70965a	0.23494855
33	0xbcfd40d5	-0.030914703
34	0x3daa1175	0.08304111
35	0x3d4dc5ee	0.05023759
36	0xbdb1c454	-0.08680025
37	0xbd7ea3cb	-0.062167924
38	0x3e64410d	0.2229044
39	0xbdfb8556	-0.12281291
40	0xbd031086	-0.03199818
41	0x3b4c565b	0.0031179402
42	0xbe2ea5c5	-0.17055424
43	0xbe400628	-0.18752348
44	0x3d6b9d5d	0.05752312
45	0x3e82f81c	0.25579917
46	0x3d9a6b9c	0.07540056
47	0x3e3f687b	0.186922
48	0x3e530c0a	0.20610061
49	0x3e186fc7	0.1488639
50	0x3e6f9173	0.23395328
51	0x3e0fff52	0.1406224
52	0x3b6dc91d	0.0036283203
53	0xbd397028	-0.045272976
54	0x3e1e9801	0.15487672
55	0x3e543f83	0.20727353
56	0xbb81012f	-0.0039369087
57	0x3c4896a7	0.01224295
58	0xbbe14007	-0.0068740877
59	0x3b8759f5	0.0041305968
60	0x3ca7c4ba	0.020479549
61	0x3dd15485	0.10221199
62	0x3e69dae8	0.22837412
63	0x3e4c86cd	0.19973297
64	0x3d0cc492	0.03436715
65	0xbccea81f	-0.02522665
66	0x3d8be33b	0.0683045
67	0xbce0d2d5	-0.027444283
68	0xbe5d20b7	-0.21594511
69	0xbe2650d3	-0.1624177
70	0x3dcf8c5b	0.101341926
71	0x3d211634	0.039327815
72	0x3c8e485c	0.017368488
73	0xbda8fd23	-0.08251407
74	0x3e520595	0.20509942
75	0x3d4d37ee	0.050102167
76	0xbe4734b1	-0.19453694
77	0xbe6e87df	-0.23294018
78	0xbd983dff	-0.074337
79	0x3c92110e	0.017830398
80	0xbdba7e88	-0.09106165
81	0x3dd29518	0.102823436
82	0xbd96874b	-0.07350024
83	0x3d312c58	0.04325518
84	0x3e528a82	0.20560649
85	0xbd9e9704	-0.07743648
86	0x3e5c8c13	0.21537809
87	0xbe639a53	-0.22226839
88	0x3e2ead58	0.17058313
89	0x3da8c8a5	0.08241395
90	0xbe565f7c	-0.20934862
91	0xbe58742c	-0.21138066
92	0x3e24559f	0.16048287
93	0xbe0be8d2	-0.13663033
94	0xbde90eb5	-0.11379758
95	0x3dd33830	0.10313451
96	0xbd922c3b	-0.071373425
97	0x3e88c171	0.26710084
98	0x3e66344d	0.22480889
99	0x3ea75a86	0.3268625
100	0xbd0c7ab4	-0.034296706
101	0x3e6f8441	0.23390295
102	0x3d67137e	0.056415074
103	0x3ea90ae8	0.33016133
104	0x3eb40734	0.35161746
105	0xbdc2a7d2	-0.095046654
106	0x3e425078	0.18976009
107	0x3df10a71	0.1176957
108	0x3ccb7878	0.024837717
109	0x3e53a9e1	0.20670272
110	0xbddc2a99	-0.10750312
111	0xba1659a9	-0.00057354063
112	0xbc4a33f2	-0.012341486
113	0x3e05918c	0.13043803
114	0x3bbe1793	0.00580115
115	0x3e130afc	0.14359659
116	0xbc779c96	-0.015113017
117	0xbde9dc10	-0.11418927
118	0x3e652986	0.22379121
119	0xbad680b8	-0.0016365265
120	0x3e0508e2	0.1299167
121	0x3df39ce3	0.11895158
122	0x3dcabafe	0.09898947
123	0x3cf6894d	0.030094767
124	0x3e9775eb	0.29582152
125	0x3ebcfa17	0.36909553
126	0x3da8ba54	0.08238664
127	0x3dddc720	0.10828996

fc.weight f4 [100, 32]
0	0xbdeec5c9	-0.11658818
1	0xbee89dd5	-0.45432916
2	0x3eaae7f6	0.33380097
3	0x3f00cf15	0.5031598
4	0x3eaee3d6	0.341582
5	0xbc926346	-0.017869603
6	0xbf13e1f0	-0.5776663
7	0xbe95a51c	-0.2922753
8	0x3e9b878d	0.30376855
9	0xbc25f23a	-0.010128552
10	0xbeb73920	-0.3578577
11	0xbec10658	-0.37700152
12	0x3e924736	0.28569955
13	0xbe0c5a91	-0.13706423
14	0xbe25f438	-0.16206443
15	0x3edc0387	0.4297144
16	0xbe3a972e	-0.18221733
17	0xbf199c8a	-0.60004485
18	0x3dcb1c34	0.09917489
19	0xbe0e19ab	-0.13876979
20	0xbf0618ed	-0.52381784
21	0xbe5ee5fd	-0.21767421
22	0xbf140cda	-0.5783211
23	0x3f05728b	0.52127904
24	0xbf079d36	-0.5297426
25	0x3efc2324	0.4924556
26	0xbe51393d	-0.20431991
27	0x3eb81989	0.35956982
28	0xbeae88cb	-0.3408874
29	0xbedfb1ec	-0.4369043
30	0xbe863ed8	-0.2621982
31	0x3e5ebcd1	0.21751715
32	0xbe5bdf66	-0.21471938
33	0xbe217a3b	-0.15769283
34	0xbee26aac	-0.4422201
35	0x3ec5b95a	0.38617975
36	0xbe32bdbb	-0.17455189
37	0xbdff6b45	-0.12471632
38	0x3d9e306d	0.0772408
39	0x3f110c7b	0.5665967
40	0x3e73ca0b	0.23807542
41	0x3e9e2605	0.30888382
42	0x3de9f4d2	0.11423649
43	0x3e51e919	0.20499076
44	0xbe4a9108	-0.19781888
45	0xbdd4e7e1	-0.1039579
46	0x3e859220	0.26088047
47	0xbe5e7b2c	-0.21726674
48	0x3dc64aed	0.0968226
49	0xbe945ce6	-0.28977126
50	0x3eb2f80e	0.34954876
51	0x3e6f0ab1	0.23343922
52	0x3e6c0810	0.2304995
53	0xbe6c0bb5	-0.23051341
54	0x3e7f89b7	0.24954878
55	0xbe403c65	-0.18773039
56	0x3bff2a9b	0.0077870614
57	0xbbb216cb	-0.005434846
58	0xbdb34c39	-0.08754773
59	0xbeb06e4b	-0.34459147
60	0x3ea21dcf	0.31663367
61	0x3e72eedd	0.23723932
62	0x3cd2629d	0.025681788
63	0x3e6428a4	0.22281128
64	0x3e6fd41d	0.23420759
65	0xbe850fde	-0.25988668
66	0xbd9d9333	-0.07694092
67	0x3dc34691	0.09534944
68	0x3dcc76dc	0.09983608
69	0x3e4406fd	0.19143291
70	0xbe51dbf9	-0.20494069
71	0x3df075bd	0.11741207
72	0x3dcd16f3	0.10014143
73	0xbe95e202	-0.29273993
74	0xbea7cef1	-0.3277507
75	0xbcc88bb7	-0.024480684
76	0x3dc09014	0.09402481
77	0x3de575db	0.1120412
78	0xbd37f777	-0.044913735
79	0x3e5d5435	0.21614154
80	0x3ecd8fea	0.4014886
81	0xbe49b3cd	-0.19697495
82	0xbe729c2f	-0.23692392
83	0xbe8e1e5b	-0.27757534
84	0xbdd1d502	-0.10245706
85	0x3e8fa791	0.2805753
86	0xbe90e2aa	-0.2829793
87	0x3e275a5d	0.16343065
88	0xbe71f088	-0.23626912
89	0x3ea7a5f5	0.32743803
90	0x3ebf67db	0.37383923
91	0x3e082de0	0.1329875
92	0xbe43113c	-0.19049543
93	0xbdcfc2ef	-0.101446025
94	0x3dc53e66	0.09631042
95	0xbe80cc0a	-0.2515567
96	0x3e195cb7	0.14976774
97	0xbe656f8d	-0.22405834
98	0x3de0b64c	0.1097227
99	0xbb92e183	-0.0044824495
100	0x3e683359	0.22675838
101	0x3e845db3	0.25852737
102	0xbd9baf1d	-0.076017596
103	0x3e0a492b	0.13504474
104	0xbdb5bec2	-0.08874275
105	0xbdd29c94	-0.10283771
106	0xbe9ab256	-0.30214185
107	0xbd515eb0	-0.05111569
108	0x3e7ad16d	0.24493952
109	0x3e26d261	0.1629119
110	0xbd0fb0a5	-0.03508057
111	0x3e406d6c	0.18791741
112	0x3ead5c5e	0.33859533
113	0xbe6b77ee	-0.22994968
114	0xbdbdb825	-0.092636384
115	0xbe7218e3	-0.23642306
116	0xbde15d36	-0.11004107
117	0x3df4d4aa	0.11954625
118	0xbe963946	-0.2934057
119	0x3cbd4c70	0.023107737
120	0xbe8460de	-0.25855154
121	0x3e0837c1	0.13302518
122	0x3e168579	0.14699353
123	0x3e77b810	0.24191308
124	0xbd765701	-0.060141567
125	0xbd8b0ed0	-0.06789935
126	0x3e2d9762	0.16952279
127	0xbda5d396	-0.080969974
128	0x3e5efaa6	0.21775302
129	0xbd399518	-0.045308203
130	0x3e2bcf76	0.16778359
131	0x3d6f1742	0.05837179
132	0x3eaa8124	0.3330165
133	0x3e8f39a3	0.2797366
134	0xbea3646e	-0.3191256
135	0x3eab823f	0.33497807
136	0xbcd74fdb	-0.026283195
137	0xbe411c0a	-0.18858352
138	0xbeb76130	-0.35816336
139	0xbe583255	-0.2111295
140	0x3eda14c8	0.4259398
141	0x3ec01e74	0.37523234
142	0xbec96e67	-0.39342043
143	0x3e280aca	0.16410366
144	0x3e84f5ce	0.25968784
145	0xbe9d8cec	-0.30771577
146	0xbe430885	-0.19046219
147	0xbe499814	-0.1968692
148	0xbe00c614	-0.12575561
149	0x3e1905cd	0.14943619
150	0xbe87a015	-0.2648932
151	0x3de116df	0.109906904
152	0xbeb6e314	-0.35720122
153	0x3e31ec36	0.17375264
154	0x3e343782	0.175993
155	0x3e383c3c	0.17991728
156	0xbe97e88f	-0.29669616
157	0xbe918c51	-0.28427365
158	0x3e9af4a7	0.3026478
159	0xbebae649	-0.3650382
160	0x3e8fe1c9	0.28101948
161	0xbe8bca03	-0.2730256
162	0x3d63f285	0.055651207
163	0x3e264e18	0.16240728
164	0x3e989924	0.29804337
165	0x3e84cb67	0.25936434
166	0xbe5f8394	-0.21827537
167	0x3edc8f1b	0.4307793
168	0xbdc89b07	-0.09795194
169	0xbe1f3336	-0.15546879
170	0xbed45e6c	-0.41478288
171	0xbe0be7ea	-0.13662687
172	0x3e8ea214	0.2785803
173	0x3e9fbc09	0.31198147
174	0xbe74fc84	-0.23924452
175	0x3ec20367	0.3789322
176	0x3ea6c951	0.32575467
177	0xbe89793a	-0.268503
178	0xbde06c19	-0.10958118
179	0xbe4f7a18	-0.20261419
180	0xbec3178c	-0.38103902
181	0x3ed4962d	0.41520825
182	0xbea3e15b	-0.3200787
183	0x3ddcbf44	0.107786685
184	0xbe8c854d	-0.2744545
185	0x3e9139e9	0.28364494
186	0x3ea12f9b	0.31481633
187	0x3eab5620	0.33464146
188	0xbd94f933	-0.072740935
189	0xbe4daf2d	-0.20086356
190	0x3e70ef4f	0.23528789
191	0xbed545af	-0.41654727
192	0xbd81959d	-0.063273646
193	0xbe95abae	-0.29232544
194	0xbea7d4ea	-0.32779628
195	0x3ed107fd	0.40826407
196	0xbe50c1c3	-0.20386414
197	0x3dc4830e	0.09595309
198	0x3d9d871c	0.07691786
199	0x3e16cb19	0.14725913
200	0x3e413c1a	0.18870583
201	0x3e264029	0.16235413
202	0x3d9afd1a	0.075678065
203	0x3e03dd01	0.12877275
204	0xbcdc8f40	-0.026923776
205	0x3e001016	0.12506136
206	0x3caacc57	0.02084939
207	0xbe1ceb74	-0.15324193
208	0xbda3af47	-0.07992416
209	0xbe250851	-0.16116454
210	0x3cd17203	0.02556706
211	0xbcb79b48	-0.022412911
212	0x3e2be8d4	0.16788036
213	0x3d905ac5	0.07048563
214	0x3dd8002d	0.105469085
215	0xbd02c016	-0.03192147
216	0x3db5e74f	0.08882009
217	0x3dd8c367	0.10584145
218	0x3a3904b0	0.00070578884
219	0xbe2725f2	-0.16323069
220	0x3ddeb904	0.10875133
221	0x3e60c9d9	0.21951999
222	0xbdc9f36d	-0.09860883
223	0x3e467a17	0.19382511
224	0xbc544963	-0.01295695
225	0xbd8033cb	-0.06259879
226	0x3eb937aa	0.3617528
227	0x3d3c97b7	0.046043124
228	0x3e852447	0.2600424
229	0xbdca6547	-0.09882598
230	0xbeb116e5	-0.3458778
231	0xbd95e313	-0.073187016
232	0xbee4e8e8	-0.44708943
233	0x3bb6ba73	0.0055764257
234	0xbc15d7a9	-0.009145656
235	0x3e128cb2	0.14311484
236	0xbc8b3e64	-0.016997524
237	0xbe1de2dd	-0.15418573
238	0x3df2efeb	0.11862167
239	0x3ce449de	0.027867254
240	0xbe5d958d	-0.2163908
241	0xbe262d6c	-0.16228265
242	0x3d4f56e9	0.050619993
243	0xbdb33197	-0.08749693
244	0xbe42330e	-0.18964788
245	0xbd546513	-0.051854204
246	0xbeb03eb5	-0.34422842
247	0x3e9835b3	0.2972847
248	0xbec60ac4	-0.3868009
249	0x3ec4c982	0.38434988
250	0xbe759a45	-0.2398463
251	0x3e071e14	0.13195068
252	0xbe864f6e	-0.26232475
253	0xbe167053	-0.14691286
254	0xbe6a187b	-0.22860901
255	0x3cd7bfba	0.02633654

fc.bias f4 [100]
0	0x3d424a29	0.047434006
1	0x3e98bddf	0.2983236
2	0xbcb444a5	-0.022005389
3	0xbd285a1c	-0.04110156
4	0xbda7c0a4	-0.0819104
5	0xbde31c09	-0.11089332
6	0xbe13c5e8	-0.14430964
7	0xbd985b94	-0.07439342
8	0xbcc97c03	-0.024595266
9	0xb936b856	-0.00017425543
10	0xbe3ed5ad	-0.18636198
11	0xbe5816c8	-0.2110244
12	0xbe7a479f	-0.24441384
13	0xbe94349a	-0.28946382
14	0xbd3aa844	-0.045570627
15	0xbea49faf	-0.3215308
16	0xbdb4ab93	-0.08821788
17	0xbeb053d4	-0.34438956
18	0xbd8b7f7f	-0.06811427
19	0xbda75832	-0.08171119
20	0xbe288a71	-0.16459061
21	0xbc58483b	-0.013200815
22	0xbe99d054	-0.30041754
23	0x3db6a0ef	0.089174144
24	0x3e0992eb	0.13434951
25	0xbd78a4c0	-0.060703993
26	0xbdd34f26	-0.10317831
27	0xbe26dc33	-0.16294937
28	0xbe3cd310	-0.18439889
29	0xbdf5eb35	-0.12007753
30	0xbea3b794	-0.31975996
31	0xbd85a6f7	-0.06525987
32	0xbe68f9d8	-0.22751558
33	0xbd42ebce	-0.047588162
34	0xbd2db0ae	-0.042404823
35	0xbe78a2c2	-0.24280837
36	0xbe2a2856	-0.1661695
37	0xbe13b129	-0.1442305
38	0xbc95e91d	-0.018299634
39	0x3d5a3005	0.05326845
40	0x3d3144cb	0.043278497
41	0xbe929f0b	-0.28636965
42	0xbd79e86d	-0.061012674
43	0x3b78d9ca	0.003797161
44	0xbea4e062	-0.3220244
45	0xbdf412f3	-0.11917677
46	0xbc91e45b	-0.017809084
47	0xbe4a77c2	-0.19772246
48	0xbe4e0d3f	-0.2012224
49	0xbd1435b6	-0.036184035
50	0xbe1b9c25	-0.15196283
51	0xbdd37b49	-0.10326249
52	0xbdf28ed2	-0.11843647
53	0xbd54192b	-0.051781815
54	0xbe22f14a	-0.15912357
55	0xbe07c73d	-0.13259597
56	0xbbdae187	-0.006679717
57	0xbcd03a89	-0.025418537
58	0x3bb70d78	0.0055863224
59	0xbe132635	-0.14370044
60	0xbe542eb1	-0.20720936
61	0xbe0b76a5	-0.13619478
62	0xbc853f76	-0.016265612
63	0xbe59e456	-0.2127851
64	0xbdfff74d	-0.12498341
65	0xbd4a7061	-0.04942358
66	0x3dbc960d	0.092083074
67	0x3d7039db	0.058648925
68	0xbd6c43cc	-0.057681844
69	0x3b34f1d7	0.0027609968
70	0x3e155db6	0.14586529
71	0x3d903a9f	0.07042431
72	0x3deb7694	0.11497226
73	0x3b6b21d9	0.003587833
74	0xbd40f94c	-0.047112748
75	0x3dac6ab2	0.08418788
76	0x3e8541c6	0.26026744
77	0x3ad9db59	0.0016621157
78	0xbd9a4609	-0.075328894
79	0x3cbedb70	0.023297995
80	0x3e73fe8b	0.23827569
81	0x3e33c1e7	0.17554437
82	0x3dbda21c	0.092594355
83	0x3da9b573	0.08286562
84	0x3e3910b3	0.18072776
85	0x3dd2e616	0.10297792
86	0xbe264b36	-0.16239628
87	0x3d405674	0.046957448
88	0x3c3a36fc	0.011365648
89	0x3e2dc01e	0.16967818
90	0x3cdac564	0.026705451
91	0x3c9e7a2a	0.019345362
92	0xbc345088	-0.011005528
93	0x3d98b476	0.07456295
94	0x3c2dfde0	0.010619611
95	0xbcd5b8c7	-0.026089085
96	0x3c81a9d3	0.015828049
97	0xbddcce85	-0.10781578
98	0xbe61495c	-0.2200064
99	0xbe460df0	-0.19341254
