src/assets/trained/mt2/checkpoint_latest.pt (torch, 276451 bytes, 21 tensors)

embedding.weight f4 [100, 64]
000000 ed 06 19 be 0e cb a9 bf cd 04 8b be 82 be 74 bf
       -0.14944048 -1.3265092 -0.271521 -0.9560319
000010 04 8a ca bd ad 8a 39 3e 55 9e aa 3f 40 a4 78 3f
       -0.09889606 0.18119307 1.3329569 0.97125626
000020 1f c9 1d c0 a2 60 14 3f d6 d7 d8 bd 27 b0 bf 3f
       -2.4654005 0.5795995 -0.105880424 1.4975632
000030 55 4b 88 bf 0d 75 ea bd 22 f4 80 3f 1a 73 7c 3f
       -1.064799 -0.11448107 1.0074503 0.9861313
000040 68 09 76 bf 81 1b ab 3f 04 f8 32 3f 61 f1 5f be
       -0.961081 1.3367769 0.6990969 -0.21869422
000050 7c a6 06 c0 67 16 a9 3e 8f e0 e8 3e 91 8f e5 3d
       -2.1039114 0.33024904 0.45483825 0.11209024
000060 60 a7 65 bf 7c 61 c0 bf 61 ef 52 3f 1b 06 89 bf
       -0.8970852 -1.502975 0.82396513 -1.0704988
000070 8d 26 66 bf 61 bf 35 3f c0 fc ee bf 4e 9a a3 3d
       -0.89902574 0.70995146 -1.8670883 0.07988416
000080 04 4d 25 3e 2f 2f 8a 3f d1 99 fd bf 00 5e 8f bf
       0.1614266 1.0795649 -1.9812566 -1.1200562
000090 00 d6 59 3f 72 b1 23 3f f7 07 c0 be 4a 91 ed 3d
       0.85092163 0.63942635 -0.37506077 0.11599977
0000a0 e4 41 ee be 7a a2 81 bf cb 06 4e bf 58 c0 55 be
       -0.46534646 -1.0127709 -0.80479115 -0.20874155
0000b0 99 e9 69 3f f7 f5 e9 be 62 e6 77 3e 6d 9a 94 3e
       0.91372067 -0.4569547 0.24208978 0.29024068
0000c0 f0 8e 36 3e 1b a0 d2 be 62 ed 83 40 30 9b 39 bf
       0.17827964 -0.41137776 4.1227274 -0.7250242
0000d0 e8 1f 8c be 62 00 44 be ce f4 1d bf 5d 96 38 bf
       -0.27368093 -0.19140771 -0.6170167 -0.72104436
0000e0 df cf fe be 12 12 95 3f f6 d1 c3 3e 7f 03 76 bf
       -0.49767968 1.164614 0.38246125 -0.96099085
0000f0 7c 01 de bf bd 85 35 40 4c 44 b1 be 5e b2 51 3e
       -1.7344203 2.8362877 -0.3462242 0.20478198
000100 c6 93 93 be dc 40 ce 3d 20 e0 b1 3d 08 f2 74 be
       -0.2882368 0.10070965 0.086853266 -0.23920453
000110 6b 19 2a 3f 49 60 02 bf f7 d5 4d bf 89 35 78 3e
       0.66445035 -0.5092817 -0.8040461 0.24239172
000120 e2 cf fe be 71 97 ab 3f d1 a8 2e be 5c 62 07 bf
       -0.49767977 1.3405591 -0.17056586 -0.5288446
000130 8a 03 e3 3f e6 00 7e be 54 84 00 40 bf 8c 2d c0
       1.7735455 -0.2480503 2.0080767 -2.7117155
000140 e4 72 93 3d b4 ee a0 3d b8 b0 bb bf f2 54 49 3f
       0.07199648 0.07858029 -1.4663305 0.7864524
000150 46 0f 8e be 6d bc 16 3f 7e 2e d5 bf 63 d6 e0 be
       -0.27746028 0.58881265 -1.6654813 -0.43913564
000160 59 0d 9d be e4 b3 64 bf 72 e2 c7 3e ea 70 c0 3d
       -0.30674246 -0.8933699 0.39039952 0.09396537
000170 1d 3a 64 bf 47 6a 9d be 5a 70 bd 3c 02 73 73 bf
       -0.89151174 -0.30745146 0.023124862 -0.95097363
000180 6e e8 89 bf 94 fc b8 3f 0f 36 b2 be 2e e4 17 3f
       -1.0774057 1.4452081 -0.34806868 0.5933255
000190 d6 1e f3 be be a6 94 bf fe 48 2a bd 13 e4 ed 3d
       -0.47484463 -1.1613386 -0.041573517 0.11615767
0001a0 35 fb 21 bf c5 ee bc bf 7b 23 b0 3f 17 5f 83 3e
       -0.63273937 -1.4760367 1.3760828 0.25658485
0001b0 12 35 8c 3f 5f 7e 98 3f 81 73 f7 be 9f 45 52 3f
       1.0953696 1.1913565 -0.4833031 0.82137483
0001c0 f8 4f db bf 35 04 96 bf 4f 08 05 40 58 9a 8f 3f
       -1.713378 -1.1720034 2.078632 1.1218977
0001d0 9c ee 9f 3d f6 40 60 3f 6f a1 05 bf 46 03 59 3f
       0.07809183 0.8759912 -0.52199453 0.8477062
0001e0 b9 4c c8 be c2 0f d1 bf 9f 8b 8c 3e ec af 3c 3e
       -0.39121035 -1.6332934 0.27450272 0.18426484
0001f0 52 69 76 3f f2 c2 7b 3e a3 82 98 bf 28 db 1a c0
       0.96254456 0.24586084 -1.1914867 -2.4196262
000200 65 0d b0 3e 22 68 3f bf af ae 56 3e f3 83 0a bf
       0.3438522 -0.7476827 0.20965074 -0.5410759
000210 41 9b ee 3f aa 1c d3 3f ce 2b bf bd fa 10 a1 bf
       1.864113 1.6493123 -0.09334527 -1.2583306
000220 1a d9 44 3f 55 b0 80 bf d4 f9 0a c0 03 d7 99 be
       0.7689377 -1.0053812 -2.1714983 -0.30046853
000230 cf 1a 2d 3e 42 93 9f 3e d7 f1 97 3f ac b3 5c bb
       0.16904758 0.31167036 1.1870679 -0.0033676429
000240 61 f8 68 3e dd 84 f0 bc 76 6f 3a bf 37 d4 30 3f
       0.22750999 -0.02936023 -0.72826326 0.69073814
000250 d4 97 b0 be 30 c9 29 c0 20 fa 88 3e 9c ee a7 3f
       -0.34490836 -2.6529045 0.2675333 1.3119693
000260 59 d0 6b bf 04 3e aa 3d f6 a2 62 bf e2 e1 fe 3f
       -0.9211479 0.0831261 -0.8852991 1.9912684
000270 9d fc f1 3e 72 a4 d1 3e d5 61 f8 3e f3 87 87 be
       0.4726304 0.40945774 0.4851214 -0.2647091
000280 87 02 28 3f 12 64 5a 3f 3f 28 6e be 4e d8 f1 bf
       0.65628856 0.85308945 -0.2325754 -1.8894136
000290 e1 1d 7b 3f ff db ca 3e dc bb 3c 3f ad e5 a9 bd
       0.98092467 0.3962097 0.7372415 -0.0829576
0002a0 e4 af 83 3f 7d 49 02 40 18 cb 43 be 23 32 d6 3f
       1.0288053 2.0357354 -0.19120443 1.673405
0002b0 36 bf 36 3f 25 7e 47 3f 3d 85 19 bf ce 3c 1c bf
       0.71385515 0.77926856 -0.5996893 -0.6103028
0002c0 55 76 8c 3f 03 60 13 3f 74 fc 9b 3d 54 e8 8d bd
       1.0973612 0.5756838 0.07616511 -0.06929079
0002d0 dd 21 3a bf 70 59 00 3f 5e 10 0d c0 16 6c 95 3f
       -0.7270792 0.5013647 -2.204124 1.167361
0002e0 f8 54 0f 3f 45 40 b5 3f 9c 75 45 3f c0 4e d0 be
       0.5598903 1.4160239 0.7713258 -0.4068508
0002f0 5f de 37 bf c3 1e 11 bf ee ab fb 3f b7 14 18 bf
       -0.71823686 -0.56687564 1.9661844 -0.5940661
000300 2c 4a 0e 3f 0f b5 81 bf fe 60 ca bf 0c 38 87 3f
       0.5558193 -1.013338 -1.581085 1.0563979
000310 c3 4b 6e bf 36 04 db be c5 fd 58 be bc 09 4f 3e
       -0.93084353 -0.4277665 -0.21190555 0.20218557
000320 54 bb 4b 3f 37 2f 93 be a1 5e 8f 3d 56 b7 b9 3c
       0.79582715 -0.2874696 0.07000471 0.02267043
000330 19 31 38 3f a1 63 0f bf f9 45 86 3f 38 d4 e4 3f
       0.7194992 -0.56011397 1.0490104 1.7877264
000340 e1 18 2c 3e 60 15 ce bd d6 de fd bf 04 94 9f 3e
       0.16806366 -0.10062671 -1.9833629 0.31167614
000350 81 a9 ec bd e3 a3 89 3f 7d 0f 14 3f d9 0b 04 bf
       -0.11555768 1.0753139 0.57836133 -0.5158058
000360 22 19 84 3d cd 48 25 bf 3e 66 4d 3f 63 8a df 3f
       0.06450106 -0.6456421 0.80234134 1.7464107
000370 22 69 bb bf c8 3e ae bf f5 7d ac bf 2d 86 d3 3d
       -1.4641459 -1.3612909 -1.3475939 0.103283264
000380 84 ce 32 3c 63 94 c8 3d 7f 05 01 bf 56 a5 75 3f
       0.010913495 0.097939275 -0.5039901 0.9595541
000390 f2 6b 95 3d 53 74 e3 bd 25 53 94 3f 47 03 50 be
       0.072959796 -0.111061715 1.1587874 -0.2031375
0003a0 f4 e7 f1 3c bb a8 83 3f f9 20 e2 3e 77 ca 80 3d
       0.02952955 1.0285867 0.4416578 0.06288617
0003b0 b8 25 3f bf 13 ba 90 3c 8e 14 ac 3e 56 28 a6 3e
       -0.7466693 0.017666852 0.33609432 0.3245265
0003c0 da dc b0 be e6 73 a5 3f 49 e1 06 c0 26 2f c5 bd
       -0.34543496 1.2925994 -2.1075003 -0.096281335
0003d0 e0 dd 16 3f 32 b6 07 3e ef 55 e5 3f 61 90 4d 3f
       0.58932304 0.13253096 1.791685 0.8029843
0003e0 d7 26 c3 bf f2 93 c4 3d b9 e3 72 bd 33 55 35 40
       -1.5246228 0.09598531 -0.059299204 2.8333251
0003f0 32 6f df be 14 05 7f 3f ea 32 0b 3f 57 0b 65 bf
       -0.43639523 0.99617124 0.54374564 -0.8947043

lstm.weight_ih_l0 f4 [128, 64]
000000 02 21 98 bd 99 c0 1a 3e 34 14 35 3e 24 50 de bc
       -0.07428171 0.15112533 0.17683488 -0.027137823
000010 85 d3 f5 3d 25 a3 b2 3e 6e 36 5e bc 88 22 b1 3d
       0.12003235 0.34890094 -0.013562782 0.086491644
000020 7c 1a 30 3d c8 6b c8 bd 34 d1 8f 3d 88 55 a2 3d
       0.042994007 -0.09786183 0.07022324 0.0792647
000030 c9 58 4e be 18 a1 d4 bc d9 d8 49 3d c1 31 2c bd
       -0.20151056 -0.025955722 0.049279068 -0.042039637
000040 de fc 02 3e d3 4e f3 3d b3 e6 4e 3e b8 81 2f 3d
       0.12791774 0.11880269 0.20205192 0.04284832
000050 3e cb 46 be 7d 37 20 3e 96 65 ff 3c f2 6b 6d be
       -0.19413468 0.15646167 0.03117637 -0.23185709
000060 a9 94 24 3e 44 f3 31 3e 42 5a 98 3e 49 64 b0 3d
       0.16072334 0.17377955 0.2975636 0.08612878
000070 96 bb 32 3e 46 18 70 3c f2 7b ce bd dd 43 55 bd
       0.17454371 0.014654225 -0.100822344 -0.052066673
000080 f6 fc 17 bd 54 76 d8 3c 8a 3a bd bd b7 fa 9d 3c
       -0.037106477 0.02642361 -0.09239681 0.01928459
000090 d7 dd 92 3e 14 cd 8a bd e9 76 e0 3c be bd 7e bd
       0.28684875 -0.06777397 0.02740045 -0.06219267
0000a0 2b 59 40 be c3 82 56 3d 1e a6 e3 3d 4a dd 99 bc
       -0.18784015 0.052370798 0.11115669 -0.018782277
0000b0 cc 9f 65 3e 7d 98 b4 bd f6 ca 80 3b 96 35 1d bd
       0.22424239 -0.08818147 0.003930445 -0.03838118
0000c0 f6 c7 1b bc a9 84 93 3d e8 02 50 3d 53 6b 33 be
       -0.009508124 0.07203037 0.05078402 -0.1752141
0000d0 5b 96 4d 3c c7 4b 83 bd 5d 3c 0a 3e 79 82 fd 3d
       0.012548055 -0.06410938 0.1349959 0.12378401
0000e0 eb e5 0c be 38 8e 12 3e 7b ff 8c 3e 78 ab 92 bd
       -0.13759582 0.14312065 0.27538666 -0.07161611
0000f0 c0 f1 3f bd 6c 72 46 bc 6a 2c dd bd 04 37 08 bd
       -0.04686141 -0.012112241 -0.10799487 -0.033255592
000100 a8 86 30 3e a2 63 f4 3d 75 66 9d bd 6f cd 05 3e
       0.17238867 0.11933066 -0.07685558 0.13066648
000110 11 fb a9 3c a3 fe 06 3e 01 03 8f bd 25 fd e2 3d
       0.0207496 0.13183074 -0.06982995 0.1108344
000120 1c 15 ac 3d c9 6c fd bd 40 37 12 3e 42 96 20 be
       0.08402464 -0.12374265 0.14278889 -0.15682319
000130 b3 4e 3c 3e 43 ab ac bd 52 7d 70 3d e1 39 c7 3b
       0.18389396 -0.08431103 0.058713265 0.0060798978
000140 44 8d cc bd 6e 57 f6 bc b5 1e 31 3d 58 6c d4 3d
       -0.09987882 -0.030070987 0.043242175 0.103722274
000150 96 a0 d6 bd 6c 6b d4 3d 1f 43 8d 3b 4c ad fd 3d
       -0.10479848 0.103720516 0.00431098 0.123865694
000160 80 b0 d0 3d 03 1a 81 3b 34 9e e2 bd 80 8a be 3d
       0.10189915 0.0039398684 -0.11065331 0.093037605
000170 be 64 e7 bd 91 46 a3 bd 1e b5 13 bd 80 60 aa 3d
       -0.11298512 -0.07972444 -0.0360614 0.08319187
000180 9a 7c 99 bd f2 dc 21 be 58 5d 04 3d f8 d8 96 bc
       -0.07494469 -0.1580694 0.032315582 -0.018414006
000190 30 16 22 bd 66 d7 53 be b0 6a 96 bd 49 b1 0e 3e
       -0.03957194 -0.20687637 -0.07344568 0.13934816
0001a0 3a 0c 01 3d 60 26 91 bc b3 42 2f 3e bc a1 c0 bc
       0.0315058 -0.017718494 0.17115287 -0.023514621
0001b0 59 a5 a8 3c 61 91 d4 3d d1 22 21 3e d4 7f ca 3d
       0.020586656 0.10379291 0.15735938 0.098876625
0001c0 67 fe da 3d e6 e0 aa 3d d9 b5 48 bd 00 7e 45 bd
       0.10693055 0.08343677 -0.04900155 -0.048215866
0001d0 66 b5 82 bd 34 1d 24 bc f9 34 58 bd 8e 74 33 3e
       -0.06382255 -0.010016728 -0.052784894 0.17524931
0001e0 db b5 e1 3d 29 db 40 bd c9 65 f9 3d 42 a5 fa 3c
       0.11021014 -0.047084007 0.12177617 0.03059638
0001f0 ae e1 74 bc 32 73 9f 3d 05 cc b6 3d a1 21 06 3d
       -0.014946384 0.07785644 0.089256324 0.032746915
000200 72 4f 77 bd c6 32 28 be 6e 64 05 3e ff 8e d5 3d
       -0.0603785 -0.16425619 0.13026592 0.10427665
000210 71 2b 27 bd f0 fd d4 3d 2c 7d fc b9 6f 5a 5b 3d
       -0.040812913 0.10399997 -0.00048158446 0.05355304
000220 b9 dc 2d 3e 71 2e 58 bd 4a bc c0 bd 3d 45 d0 3d
       0.1697873 -0.052778665 -0.09410913 0.10169456
000230 ca cd 0b 3e e8 55 92 bc 42 12 09 ba 31 52 b8 3d
       0.13652721 -0.017863229 -0.0005228856 0.09000052
000240 c1 53 42 be 25 a2 9d bc 15 25 33 bc 3e bd 34 3e
       -0.18977262 -0.019242356 -0.010934134 0.17650315
000250 35 d6 4e bd e3 82 53 3c e9 81 2e bd 52 31 04 3e
       -0.050497252 0.012909624 -0.04260436 0.12909439
000260 20 38 e1 3c c7 b0 9e 3d 24 01 55 bd 39 a7 8d bd
       0.027492583 0.07748561 -0.05200304 -0.06916661
000270 23 45 20 be 00 e6 19 be c6 82 5b 3d f7 9c df bd
       -0.15651374 -0.15029144 0.053591512 -0.109186105
000280 b0 31 29 be 9b 74 c0 bd c0 1c fe 3a 5e e1 ad 3d
       -0.1652286 -0.09397241 0.001938723 0.08490251
000290 a0 fe 48 bc cf 8b dd bb 08 6a 7b bc b5 07 fc bd
       -0.012267739 -0.0067610512 -0.015345104 -0.123061575
0002a0 cf e1 92 bc 2d 1c 0b 3e ef 71 16 bc 67 62 04 3e
       -0.01792994 0.13584967 -0.009182437 0.12928163
0002b0 48 b6 e0 3d 05 d6 15 3e 65 88 a7 3c eb b3 86 3d
       0.109722674 0.14632423 0.02045078 0.065772854
0002c0 57 2c a7 bd f9 24 17 bd fe e9 2d 3d e9 6f a1 3d
       -0.08162754 -0.036900494 0.04245948 0.07882673
0002d0 0f 0c 56 3d c1 19 27 3c 54 e9 38 3d 24 6a ba bd
       0.052257594 0.010199011 0.045144394 -0.09102276
0002e0 2f 6d 95 3c 36 e6 03 be 9a d6 14 be 71 c6 2b 3e
       0.01824054 -0.12880787 -0.14534989 0.16774918
0002f0 59 95 2c 3e 4c db f4 bd 4b 39 1c bb ed df 5a be
       0.16853847 -0.1195589 -0.002383786 -0.21374483
000300 41 70 dd 3d e2 6d 6e be ce b7 c4 3d b8 60 cc bc
       0.10812426 -0.23284104 0.096053705 -0.024948463
000310 eb 17 99 be 91 e4 51 3e d8 00 46 3d 1e 01 bb 3e
       -0.2990106 0.20497347 0.04834065 0.3652429
000320 df 70 ca bd 03 a6 30 bd cb 9b dc 3b 7b 79 64 bd
       -0.0988481 -0.04312707 0.006732439 -0.055779915
000330 08 9e 0f 3e 16 ff 8f bd 00 57 a3 bd 33 49 c8 bd
       0.14025128 -0.07031076 -0.07975578 -0.09779587
000340 4e 46 a3 3e e5 93 18 3d 7e 31 75 bc 78 8b a6 bc
       0.31889576 0.03725042 -0.014965413 -0.020330176
000350 d9 05 1f be 5c 23 57 3e 51 9d a8 bc 76 c1 40 3e
       -0.15529574 0.21009582 -0.020582827 0.188238
000360 ea 09 b5 bd 19 ab 0c 3d 19 0f 57 be fa 30 96 be
       -0.088397816 0.03434286 -0.21001853 -0.2933424
000370 b2 19 f5 bd 90 e2 07 3e d6 62 14 be 5d 64 a7 bd
       -0.119677916 0.1327002 -0.14490828 -0.0817344
000380 dd 79 78 be ce 29 9a bd f4 36 ca 3d 5e 3b 94 bd
       -0.24265237 -0.07527505 0.09873763 -0.07237886
000390 b6 ac 24 bd e9 19 d5 bd 9d 93 00 3e eb cd 44 be
       -0.040203772 -0.104053326 0.1255631 -0.19219176
0003a0 a4 a8 ca 3d 57 af 85 3d 38 54 2a be 7e 1d b5 3c
       0.09895447 0.06527584 -0.1663369 0.02210879
0003b0 f0 0a 24 bc 0e 67 fb 3d 14 1d c9 be 9b 32 8a 3c
       -0.010012373 0.122755155 -0.39279997 0.016869834
0003c0 04 c8 b2 bd df 1e 8f be c4 4b 0c 3e e3 b8 18 be
       -0.08729556 -0.2795324 0.13700777 -0.14914279
0003d0 12 51 fa bd 41 49 0e be e0 fc b3 bd bc 8f 16 3e
       -0.12222494 -0.13895132 -0.087884665 0.14703268
0003e0 be 3b b7 be 5f c8 59 be 13 e3 b2 3e 8f c1 0f be
       -0.35787767 -0.21267842 0.3493887 -0.1403868
0003f0 d2 4c 84 3e b5 67 0f 3e a8 39 90 bc 7c 0f 13 be
       0.2583986 0.14004405 -0.017605618 -0.14361376

lstm.weight_hh_l0 f4 [128, 32]
000000 7e a9 c5 3d 76 a7 0b bd 30 39 d2 bb c5 d3 35 3e
       0.09651469 -0.03409525 -0.0064155087 0.17756565
000010 16 cc 53 3e b0 e2 4a bd 55 5a 6b 3e 06 a2 f5 bd
       0.20683321 -0.049532592 0.22983678 -0.11993794
000020 05 9c a0 3d 50 62 a2 3d 03 b6 f0 3c 81 5a c0 3d
       0.07842258 0.07928908 0.029383665 0.09392262
000030 e1 fa 54 be 02 9d 01 3e e5 b7 3c 3e 6f e1 22 ba
       -0.20798828 0.1265755 0.18429525 -0.0006213402
000040 22 08 9c be ca 38 60 3c dc a9 c1 3d 7f 46 65 be
       -0.30474955 0.013685415 0.09456226 -0.22390173
000050 11 bc db 3d 37 c4 31 be f2 05 5c be 85 3c 4b be
       0.1072923 -0.17360006 -0.21486643 -0.19847305
000060 92 34 3b bd a3 00 95 bd af 75 04 3e 8f c2 f1 bd
       -0.04570443 -0.07275512 0.12935518 -0.11804687
000070 d2 91 03 3e 0e 0d de 3c 80 6f 95 bd f1 7a 3e be
       0.12848595 0.027105834 -0.072966576 -0.18601586
000080 98 e2 2a 3e 5d b4 03 be c3 1f bd 3d f8 c5 89 bd
       0.16688001 -0.12861772 0.09234574 -0.06727213
000090 c4 7c 8b bc 00 57 39 3e 2f cd 73 bc 7d cb dd 3d
       -0.017027266 0.18099594 -0.014880463 0.10829828
0000a0 61 a9 22 3e cc 1f fd 3d d2 9d 10 be eb aa 45 3d
       0.15884925 0.123595804 -0.14122704 0.048258703
0000b0 8a 8a 17 3d f8 2c 2c bd 15 33 c0 bd 52 28 0d bc
       0.036997356 -0.042035073 -0.09384743 -0.00861557
0000c0 6d d9 be bd 3d 2a 03 be b2 bd 47 3e 3d 9e 1a bd
       -0.093188144 -0.12809081 0.19505957 -0.037748564
0000d0 ac 4b 5d be 0d b0 c1 3d 1e 0f c1 3d fc 2a f9 3c
       -0.21610898 0.09457407 0.094267115 0.030416004
0000e0 62 18 39 be 1a 1b a5 bd f7 8c 4c bd 95 34 09 be
       -0.18075708 -0.0806181 -0.049939122 -0.13398965
0000f0 0b cf cb bd 1b 6f 01 be a1 8b 3f 3e 18 35 bf 3d
       -0.099516 -0.1264004 0.18705608 0.09336299
000100 7e 07 29 3c 9f 72 0e be a8 1a dd bd 48 31 2d 3d
       0.010316728 -0.13910912 -0.107961 0.042283326
000110 4b e4 48 3e fb 48 0e 3e 59 9a c6 bd 24 82 cb bd
       0.19618337 0.13895027 -0.09697408 -0.09936932
000120 81 4d 90 3d 70 81 15 3d e5 1e 1f ba 9f d2 25 3e
       0.07046033 0.036500394 -0.00060699723 0.16193627
000130 c5 31 8e 3d 3d 88 79 bc c5 6f 10 3d 32 fe 6d bd
       0.069430865 -0.015230236 0.03526284 -0.058103748
000140 1b fe 07 bd 65 51 be 3c af 8b 07 3e 3c 67 b2 3c
       -0.03320132 0.023232171 0.13236879 0.021777742
000150 51 b6 7e bc 93 9a f6 bd 0b a4 08 bd ab 3d 43 be
       -0.015546397 -0.120412014 -0.03335957 -0.19066493
000160 2b 5c 95 bd ff 04 c7 bd 79 d6 2d 3d 33 e3 55 3e
       -0.0729297 -0.0971775 0.042440865 0.20887451
000170 d0 92 d9 3d fd 23 4b 3e 9e 9c 71 3c da 95 c8 bd
       0.106237054 0.19837947 0.014746813 -0.09794207
000180 4e 6d 9b 3c d3 4c cd bd a6 91 21 be 78 dd 5c be
       0.018973019 -0.10024419 -0.15778217 -0.21568859
000190 43 45 47 be f6 ac 3a 3e ab 05 11 3d c1 8a 5d bc
       -0.19460015 0.18230042 0.035405796 -0.013521851
0001a0 ca 13 39 be 7f 05 01 3d 3e d3 9c bc 98 68 9a bc
       -0.18073955 0.031499382 -0.019143697 -0.018848702
0001b0 13 7a 17 be fd ed 10 3e bd d3 82 3e a7 a5 bb bd
       -0.14792661 0.14153285 0.25552168 -0.09162455
0001c0 48 68 c8 3c 6d ca 7b bb 07 c8 56 3e df 17 e8 bd
       0.024463788 -0.0038420216 0.20974742 -0.11332678
0001d0 a3 04 28 be 2a 11 a0 bb f7 af 92 3d 5e f1 13 be
       -0.16408019 -0.0048848586 0.07162469 -0.14447543
0001e0 53 a1 8d be 0d 3f 34 bd da dc 1c 3e d2 6c e4 bd
       -0.27662143 -0.044005442 0.15318623 -0.11153568
0001f0 bd bf 01 3e 89 54 27 3e f8 7b 87 bd 29 c7 5e be
       0.12670799 0.16340841 -0.06615442 -0.21755661
000200 35 1e bf 3e f1 28 69 be cb 11 c5 be a0 29 88 bd
       0.37327734 -0.22769524 -0.38490137 -0.06648564
000210 8c f7 2f 3b 91 c1 ec 3d 05 fe a8 3e 56 34 2d 3e
       0.002685043 0.11560357 0.33006302 0.16914496
000220 d9 7b 58 3e 26 ed ec 3e 1c 2a dc be b8 d3 ed 3e
       0.21140994 0.4627468 -0.43000877 0.4645059
000230 0c 3f c4 be eb 21 e0 bd 28 2d 4f be 2e 36 72 be
       -0.3832935 -0.10943969 -0.2023207 -0.2365348
000240 0c 09 f3 3b d8 57 a2 3e 32 4c ba 3e 87 8b 14 be
       0.00741685 0.31707644 0.36386257 -0.1450635
000250 37 6a 97 be 77 f2 3e be 4d d0 7c be 4b 34 3c be
       -0.29573223 -0.1864718 -0.24688835 -0.18379323
000260 99 09 19 be 32 8e da be 08 18 90 be 34 7a 50 bd
       -0.14945067 -0.4268661 -0.28143334 -0.050897792
000270 44 02 a0 3e e4 4b 83 3d 71 f7 07 3e 88 12 8b be
       0.3125173 0.06410959 0.13277985 -0.27162576
000280 85 64 01 3e e2 d8 bc be 50 58 a5 be b8 b5 25 be
       0.12636001 -0.36884218 -0.3229394 -0.16182601
000290 84 15 3a 3c 51 9e 1c be 5a a5 85 3e e6 73 0d 3e
       0.011357669 -0.15294768 0.26102716 0.13813743
0002a0 c7 c6 a6 3e b1 c9 f1 3e 82 3a 02 be fe 04 d1 3d
       0.3257353 0.4722419 -0.12717631 0.1020603
0002b0 00 0c b8 be 00 43 29 bd c8 66 5d bd 72 de 94 be
       -0.35946655 -0.04132366 -0.054053098 -0.29075962
0002c0 7f 7b aa 3d 33 08 20 3e 8d c3 c4 3e 52 b9 0c be
       0.08324336 0.15628128 0.38430443 -0.13742569
0002d0 31 30 81 be 97 4d 9c be 0e 7f 44 be 08 87 00 bf
       -0.2523208 -0.30527946 -0.19189093 -0.5020604
0002e0 c6 14 ea be d5 1c 86 bd 53 07 5e be 96 1b 99 bd
       -0.45718974 -0.06548468 -0.21682481 -0.07475965
0002f0 dd f2 a0 3e ae 7f 20 3e 7f 73 9a 3e 05 83 e0 be
       0.3143529 0.15673706 0.30166242 -0.4384996
000300 c3 7e 5e 3e ef fb 83 be ab 8d 54 be 4b 5a 39 3d
       0.21728043 -0.25778148 -0.20757167 0.045252126
000310 2f 74 c6 bc a6 7f ee 3d 0a d9 4f bd 23 c5 5f 3e
       -0.024225323 0.11645441 -0.050744094 0.21852545
000320 17 4b b0 bd d4 1a 62 3e 4f a8 2f be 4a d5 5a 3e
       -0.08608072 0.22080547 -0.17154048 0.21370426
000330 21 21 0b 3d 92 21 de bc 1d b9 38 be 64 8e f2 bd
       0.03396714 -0.027115617 -0.18039365 -0.11843565
000340 7f a3 59 be 58 12 cf bb 80 cb 62 3e 0c 4d b5 bd
       -0.21253775 -0.0063193254 0.22147942 -0.08852586
000350 ac d7 fc bd d2 1e 92 be f1 65 4d bd 63 82 22 be
       -0.12345824 -0.2853914 -0.050146047 -0.15870051
000360 27 a4 2f 3d 8b ba 44 bc a5 36 5f bd 16 37 10 be
       0.042881157 -0.012007366 -0.054495472 -0.14083514
000370 bf bb 57 3e da 85 20 bd a6 3b 33 3e 96 ff cc bd
       0.21067713 -0.03919015 0.17503223 -0.10009687
000380 30 da 40 3e 64 e2 9c bd 9f aa 90 be 81 e7 54 be
       0.18833232 -0.07660368 -0.28255174 -0.20791437
000390 64 d1 4f 3e 22 49 57 3e 80 3a 82 3e fc 09 43 3b
       0.2029472 0.21023992 0.25435257 0.002976059
0003a0 a0 e3 11 3e 9d 40 32 3e dc 28 98 3d 5c 58 a3 bd
       0.14246988 0.1740746 0.07429668 -0.079758376
0003b0 66 3a 41 be 7c f3 84 3e fb a9 b5 3c ee 44 b7 3d
       -0.18869933 0.25967014 0.02217578 0.08948694
0003c0 04 b1 b6 3d 28 15 e1 3d 87 88 73 bc 4d 29 bc 3c
       0.08920482 0.10990363 -0.014864094 0.022968912
0003d0 20 f5 75 be 52 50 49 be ca 55 cc 3c 00 46 86 be
       -0.24019289 -0.19659546 0.024943251 -0.2622528
0003e0 f2 21 00 bd 51 cc 20 3d 88 15 1d bb 3b 34 0b 3d
       -0.031282373 0.03925735 -0.0023969132 0.033985358
0003f0 cb ee 41 3e ef 62 08 be 0b a3 c9 bc 10 25 53 be
       0.18938749 -0.1331899 -0.024613878 -0.20619607

lstm.bias_ih_l0 f4 [128]
000000 e2 73 37 bd ee 2c 42 3e b3 f5 ab 3b 75 23 43 3e
       -0.04478825 0.18962452 0.0052477955 0.19056495
000010 f3 54 85 3e bd a0 57 3e df 9b ce 3d 53 16 f5 38
       0.26041374 0.2105741 0.10088324 0.000116866686
000020 3e 62 8d 3e a5 4c 62 3e e1 fa cb bc 83 66 6d 3e
       0.27614015 0.2209955 -0.024899902 0.23183636
000030 b9 25 ae 3d 22 16 3e 3e 0a 88 d5 3d 16 60 83 3e
       0.08503289 0.1856313 0.10426338 0.25659245
000040 8c 39 c3 3e 90 ca a6 3e 4f bf 4e 3e ca f7 76 3b
       0.38129842 0.32576418 0.20190166 0.0037684315
000050 1b 63 44 3e 7f 76 c0 3d ca 5e 0c 3e cc f5 30 3e
       0.1917843 0.09397601 0.13708034 0.17281264
000060 31 12 79 bc 69 ce 0b 3d 65 83 91 3e a4 1d 27 3d
       -0.015202091 0.034132395 0.2842056 0.040799752
000070 cc 7d d1 3b c4 94 fa 3d 3b 42 2b 3e f9 1b 5d 3e
       0.00639317 0.12235406 0.16724484 0.21592702
000080 9f 49 b3 3d 62 7c 6f 3e 5f 42 ea 3d 99 09 25 3b
       0.087542765 0.23387292 0.114384405 0.0025182723
000090 8a 9e 22 be aa c0 f9 bd 3b a3 61 bd 74 36 56 3e
       -0.1588079 -0.12194951 -0.05508731 0.2091921
0000a0 29 a7 0c 3d 8b 85 a2 bd 58 1b 5a 3e b5 21 b9 3d
       0.034339104 -0.079356275 0.21299493 0.09039632
0000b0 10 3d 3c 3e 8d 85 e9 bd 33 04 ca 3d ba 38 eb 3d
       0.18382668 -0.11402426 0.09864082 0.11485429
0000c0 50 db 21 be 1f b6 4d be b9 55 0b 3d c0 b2 48 3e
       -0.15806317 -0.20089005 0.0340173 0.19599438
0000d0 33 eb ae bd 3b 92 58 3e fb e7 40 3d 73 ec ad 3b
       -0.085409544 0.21149532 0.047096234 0.005307728
0000e0 2b f7 2e bd 45 49 a4 bc 15 75 04 bd 0b e0 16 3e
       -0.042716186 -0.020054469 -0.03233822 0.14733903
0000f0 3d 3a 15 bd 27 43 e2 3d c6 52 62 bd db 7a 0d 3e
       -0.036432493 0.110479645 -0.05525472 0.13816397
000100 2f ff 47 3e e9 1c 44 3d e3 b7 b1 bc 43 9e b1 3d
       0.19530939 0.047879133 -0.02169413 0.08672764
000110 92 c6 4c 3d 44 2e 05 3e e5 2e e3 3d 6b e7 4b 3e
       0.04999406 0.1300593 0.11092929 0.19912498
000120 e9 71 1d 3e 79 92 8b bd 7b 3d 23 3d 8e 6a 48 3e
       0.15375485 -0.06815047 0.039853554 0.19571897
000130 fa ce 1d 3c 15 a8 68 bd 68 70 1d be 74 f9 31 be
       0.009631867 -0.05680092 -0.15374911 -0.17380315
000140 19 b9 03 be 1e ea 05 bd be dc 09 3e 70 61 18 be
       -0.12863578 -0.032693975 0.13463113 -0.1488092
000150 cc 8e 9e bd 5b 27 6d 3d 31 12 42 be ba 41 02 be
       -0.0774208 0.05789886 -0.18952252 -0.12720385
000160 ad 58 12 3d 98 4d 35 be ef 84 c0 3c b2 a1 c3 3c
       0.0357291 -0.17705381 0.023500888 0.023880813
000170 55 ce 96 3d f4 33 e3 3d bf 2f 3b 3e 48 a5 49 be
       0.073635735 0.11093894 0.18279932 -0.19691956
000180 cc d1 ea 3c 5d 94 8a bd 34 95 fd 3d 05 69 1e 3e
       0.028664492 -0.06766579 0.12381974 0.1546975
000190 99 ae 67 3e b9 a3 e6 3e 48 ab 50 3e 77 1e b6 3d
       0.22625197 0.45046785 0.20377839 0.088925295
0001a0 c1 cc bb bb 56 c1 69 3e 5b 2f 36 bd 25 b5 8d 3e
       -0.0057311957 0.22827658 -0.044478755 0.27677265
0001b0 0f d0 1d 3e f4 99 4a 3e 56 11 19 3e df b1 0e 3c
       0.154114 0.19785291 0.1494802 0.0087094
0001c0 26 10 ad 3e f0 f5 8d 3e a2 f5 0c 3e eb 4b 50 3d
       0.33801383 0.27726698 0.13765576 0.05085365
0001d0 a9 05 89 3a a2 fe 52 3e 22 a9 bb 3d 3a 08 bd bd
       0.0010453957 0.20604947 0.09163119 -0.09230085
0001e0 4e e7 a5 3c b9 80 62 bc 30 93 82 3e c8 a0 8c 3d
       0.020251896 -0.013824635 0.2550292 0.06866604
0001f0 94 7b 5c 3d 5f 5d cd 3c 9d a4 7f 3e ce 08 c3 bd
       0.05382879 0.025068937 0.24965139 -0.09523164

lstm.bias_hh_l0 f4 [128]
000000 9e 25 50 3d 3c 24 fb bd d4 4f 95 3d de c7 bf 3d
       0.050817125 -0.122627705 0.07290617 0.093642935
000010 6e 94 74 3e a3 c7 cb 3e 0b 97 d1 3d 88 47 4a 3e
       0.23884746 0.39800748 0.10233887 0.1975385
000020 92 25 7e 3d 5d 71 52 3e e4 a4 f0 3d d4 03 2f 3e
       0.06204755 0.20551057 0.117502004 0.17091304
000030 7f 7f 85 bc 5b d1 d2 3e 23 8e a5 3e 4c 72 8f 3d
       -0.016296146 0.4117535 0.32335004 0.07004222
000040 79 77 43 3e d0 b1 db 3d 91 d8 73 3b b1 fd d6 bb
       0.19088544 0.107272744 0.003720794 -0.006561004
000050 73 e0 9f 3c 62 d6 16 3e b4 5f 44 3e 8d 0b 0c 3e
       0.019516205 0.14730218 0.19177133 0.13676281
000060 5f 91 f3 3d b7 93 e5 3d 4d c6 e3 bc 2c ac 1a 3e
       0.11892962 0.11209815 -0.027804518 0.15104741
000070 86 27 9e bc 48 c1 46 3d 08 9a 6e 3e c9 d2 5e 3e
       -0.019305956 0.04852417 0.23300946 0.21760096
000080 6d 92 01 be 64 1d 06 3e 4e 82 26 3e e1 4c 88 bd
       -0.12653513 0.13097149 0.16260645 -0.066552885
000090 2b 60 29 be f1 b5 29 be 65 70 f7 bc 52 ea c9 bd
       -0.16540591 -0.16573311 -0.030204961 -0.09859146
0000a0 86 98 07 3d 15 27 23 be 27 11 36 bd 09 94 39 3d
       0.033104442 -0.15932877 -0.04444995 0.045307193
0000b0 8c 6e 72 3e ce 3b 12 be 70 fe 8f 3d ae db b2 3d
       0.23674983 -0.14280626 0.07030952 0.08733307
0000c0 28 44 11 be 29 75 f5 bb f6 b7 50 3e 74 63 e4 3d
       -0.14186156 -0.007490773 0.20382676 0.11151782
0000d0 f1 1c 3a 3e 3b 7a 9e 3c cb 86 02 3d 67 b9 8a bd
       0.18175103 0.019345393 0.03186683 -0.06773644
0000e0 d6 fd 09 3e 90 2d 01 3e 95 a5 ea bd 76 59 3f bd
       0.13475737 0.12615037 -0.114573635 -0.046716176
0000f0 e8 bc 10 3d 02 2e 4c bd 60 22 67 3b b2 3f 4c 3e
       0.035336405 -0.049848564 0.0035268292 0.19946173
000100 64 67 39 bd d4 39 0d be c0 02 cc bd 3e 47 aa 3d
       -0.045264617 -0.13791591 -0.09961462 0.083143696
000110 bc 15 d2 3d 92 1e b2 bd de 85 55 3e e3 c6 22 3e
       0.10258052 -0.08697237 0.20851848 0.15896182
000120 b9 bc cd 3d 76 da ce bc d9 eb 99 bd 9a 29 8d bc
       0.100457616 -0.025250655 -0.075156875 -0.017231751
000130 f7 c8 40 be 1a e7 0e 3e 32 f7 9a 3d ad 7e 19 bd
       -0.18826662 0.13955346 0.0756668 -0.037474323
000140 f0 cf de bd 70 2b cd 3c 74 ad 6d 3d 79 8e 07 be
       -0.10879505 0.025045127 0.058026746 -0.13237943
000150 90 f2 a1 bd 90 6e 2f be 81 ce 35 3b 82 79 a9 3d
       -0.07907593 -0.1713202 0.0027741494 0.08275129
000160 9b bd 8a 3b 93 05 27 be c2 5f ee 3d 69 53 1b 3e
       0.0042340285 -0.1631072 0.11639358 0.15168537
000170 20 29 3a 3e 6d ec cc bd ed f6 d9 3d b5 f3 ca bd
       0.1817975 -0.10006032 0.106428005 -0.09909765
000180 f3 77 0f 3b 3d 55 97 3d dc d7 25 3e 7d 0d 29 3e
       0.0021891564 0.07389305 0.16195625 0.16509052
000190 f5 99 e6 3e 73 ff fd 3d c6 a9 7a bc 56 11 cf 3c
       0.45039335 0.12402239 -0.015299266 0.025276821
0001a0 28 02 70 3e 0d 3c 73 3e 36 3b 23 3d 1f e0 eb 3d
       0.23438323 0.23753376 0.03985139 0.11517357
0001b0 d6 e1 a1 3d 7b f6 d5 3c 7e bf 62 3d 16 59 9d 3d
       0.07904403 0.026118508 0.055358402 0.076830074
0001c0 0d 1b 7b 3e a8 a6 7b 3e 57 80 05 3e 60 46 b7 3d
       0.24522038 0.24575293 0.13037239 0.0894897
0001d0 3a d0 0f 3d a5 ae b5 3d b3 63 14 3e 86 f7 93 bd
       0.03511069 0.088712014 0.14491157 -0.07224946
0001e0 e7 a6 8a 3e e8 d3 68 bd e7 cc 33 3e d6 13 b4 3e
       0.2708046 -0.056842715 0.17558633 0.35171384
0001f0 e7 08 82 3e 56 80 8f 3e ea 6e 76 3e e2 73 55 3e
       0.25397417 0.280276 0.24065748 0.20844987

fc.weight f4 [100, 32]
000000 84 00 f0 be ac 33 52 be 72 8a 27 be 2b af 17 3f
       -0.46875393 -0.20527524 -0.16361406 0.5925166
000010 22 a1 9f 3e f6 52 a1 3e 46 0e d9 bd ea f6 c9 bd
       0.31177622 0.31508607 -0.105984256 -0.09861548
000020 f2 21 98 be de 97 59 3e 5c 0c d4 3e de 69 1f bf
       -0.29713398 0.21249339 0.4141568 -0.62270916
000030 ed 32 d6 3e ba 14 a1 3e 00 d5 00 3f 7d 20 79 3d
       0.41835728 0.31461126 0.5032501 0.060822
000040 40 46 b4 be f1 d4 f5 be 83 e7 c2 3d 67 52 c1 3e
       -0.35209846 -0.48014024 0.095168136 0.3775818
000050 c9 d9 03 3f c6 88 10 be f4 be 19 be d9 be 1c be
       0.5150419 -0.14114675 -0.15014249 -0.15307178
000060 f0 72 62 be 2a 68 78 3d 29 79 0b 3f a3 ee f7 be
       -0.22114158 0.060646214 0.5448175 -0.48424253
000070 ba e5 cc bd 0e 11 0e bf 48 7e 0b bf ff 0c 20 bd
       -0.10004754 -0.55494773 -0.54489565 -0.039074894
000080 ec 14 86 3e 9d 6d 91 be 25 56 47 3d 9e bb ac be
       0.26187837 -0.2840394 0.04866614 -0.3373689
000090 af fd 88 be 64 a1 c7 3e b9 3c 37 3e c7 9c 8e 3e
       -0.26756045 0.3899032 0.17894258 0.27853987
0000a0 f4 ea 03 bd 31 d7 ae be be a8 55 be 51 ca 73 3e
       -0.03220649 -0.34148553 -0.20865151 0.23807646
0000b0 9d 33 9a be e0 7d 76 3e 21 e0 c1 3e 49 da 37 be
       -0.30117503 0.24071455 0.3786631 -0.17954363
0000c0 27 77 d6 be 98 98 5f 3e 68 1d 92 3c 10 3c 98 be
       -0.4188778 0.21835554 0.017836288 -0.29733324
0000d0 f1 41 a2 be a3 ab 5f be fe 36 e1 bd 99 0a 24 be
       -0.31690934 -0.21842818 -0.10996817 -0.16019668
0000e0 49 4a 9e be ab 5d 92 be 7f 49 bd 3d 58 66 9d be
       -0.3091605 -0.28587088 0.09242534 -0.30742145
0000f0 d6 a1 9d bd 9b 94 cf 3d c4 f5 1f 3e 1b 82 00 bc
       -0.076968834 0.10135766 0.15621096 -0.00784352
000100 cb bc 97 be 8d 18 60 3e 5e 83 16 3d 69 ff c3 3c
       -0.29636225 0.21884365 0.036746375 0.0239255
000110 13 64 5b 3d 60 50 98 bd 17 c9 3d be ad 39 80 be
       0.053562235 -0.07437205 -0.18533741 -0.25044003
000120 48 25 84 be 51 f6 8f be 87 31 3e 3e 7e 17 32 be
       -0.25809693 -0.28117612 0.1857358 -0.17391774
000130 16 8a 1b 3e 1a f5 3a 3d 9a ca 00 3d fd e3 56 3d
       0.15189394 0.045643903 0.031443216 0.05246352
000140 c4 d4 5c 3e 98 ba 7a be 75 7e bc bd f1 e6 3f 3d
       0.21565539 -0.24485242 -0.09203807 0.046851102
000150 ba c9 54 3d 34 58 b6 3e 05 0e 87 3e 9f 62 40 3e
       0.051950194 0.3561417 0.26377884 0.18787621
000160 39 c2 40 3e 7d e5 8f 3e e7 e2 14 3e f4 95 7d bb
       0.1882409 0.28104773 0.14539681 -0.0038694115
000170 a5 05 84 bd d2 b0 b8 bc 41 c1 9b be 17 94 69 3e
       -0.06446389 -0.022545252 -0.3042088 0.22810398
000180 8d df 5e be c0 1a 8a 3e 7d 73 81 3e bb 3d b0 bb
       -0.21764965 0.26973534 0.25283423 -0.0053784526
000190 49 e6 10 be 85 4e 85 bd 7b 24 8f be 0a 5c 87 be
       -0.14150347 -0.06509117 -0.2795752 -0.26437408
0001a0 5d f7 24 be d8 78 ef bd 4e b1 a0 3c 79 89 6c bd
       -0.16109987 -0.11692971 0.019615795 -0.05774829
0001b0 5c 20 dd 3d c7 5c 85 bb 37 6d 55 3d 80 95 0a 3e
       0.10797188 -0.004069898 0.05210611 0.13533592
0001c0 2d fb a3 bc 70 48 f9 bd a4 d9 43 be 75 fa 9a 3e
       -0.02001723 -0.121720195 -0.19125992 0.3026921
0001d0 01 c7 04 3e cd bd 8b 3d 0e 8e 4e 3e 1c fe 42 3e
       0.12966539 0.06823311 0.20171377 0.19042248
0001e0 14 98 32 3c 6c 25 74 3e 01 96 00 3c 58 17 88 bd
       0.010900516 0.238424 0.007848264 -0.066450775
0001f0 f5 ff 04 be fd 78 79 be 3c cd 72 be 29 8d 96 3d
       -0.12988265 -0.2436256 -0.23711103 0.07351143
000200 50 af 21 be 15 c4 ed 3e 4f 1c d9 3e 95 7f 77 3e
       -0.15789533 0.4643866 0.4240441 0.24169762
000210 fe 16 42 3d 20 2a 42 bc 62 db c9 bd 1b 17 3f be
       0.04738521 -0.011850864 -0.09856297 -0.18661158
000220 68 b6 fe bd c2 58 61 be 05 aa 6a 3e 5b a4 93 be
       -0.12437135 -0.22006515 0.2291642 -0.2883633
000230 e6 a4 8a 3d ee 90 92 bd 6f 24 5b 3d 53 e7 aa 3e
       0.06769733 -0.071565494 0.053501543 0.3337961
000240 32 62 a0 3d 62 f3 fb bd 46 c7 83 be a8 d2 ac 3e
       0.07831229 -0.12302281 -0.2573797 0.33754468
000250 1a 36 90 3e ce 75 e5 3e 4c af 07 3e 4f 28 79 3e
       0.28166276 0.4481644 0.13250464 0.24331783
000260 0f 5e c7 3e 56 0c 51 3e 90 ed 8b 3e 00 6a 95 be
       0.3893895 0.20414862 0.27329683 -0.29182434
000270 6d fb 12 be 53 8a 01 be 71 2a 96 be f4 22 8b 3e
       -0.14353724 -0.12650423 -0.29329255 0.27175105
000280 91 17 a7 be 2c 4e aa 3e e3 e5 bb 3e 51 fc 2c 3e
       -0.32635167 0.33262765 0.36698827 0.16893126
000290 22 c1 09 bc c0 a3 09 be 93 b6 2d be f2 5b bd be
       -0.008407863 -0.13441372 -0.16964178 -0.3698421
0002a0 ec 3c 92 be 31 ab a5 be 20 fb 76 3e ce f4 d3 be
       -0.28562105 -0.3235717 0.24119234 -0.4139771
0002b0 b8 74 0c 3e 75 22 05 be 78 5b f7 bc cc 59 5c 3e
       0.137164 -0.13001426 -0.030194983 0.2151863
0002c0 ff 15 9d 3c af 38 93 be 39 c9 a2 be 50 89 b2 3e
       0.019175528 -0.28754184 -0.31794146 0.34870386
0002d0 1c c7 a4 3e b5 d4 e7 3e 23 e6 9b 3e 77 36 87 3e
       0.32183158 0.4527947 0.30449018 0.2640874
0002e0 2b b8 3f 3e b1 1a 21 3e 4c 1f 06 3e b6 ff cc bd
       0.18722598 0.15732838 0.13097876 -0.100097105
0002f0 f1 7c 8c be 32 3f af be 96 25 dd bd f8 bd 99 3e
       -0.27439073 -0.34227902 -0.107981846 0.30027747
000300 00 35 97 3d c7 f0 cf bc b4 d0 c3 bc e2 bf aa be
       0.07383156 -0.025383366 -0.023903228 -0.3334952
000310 dd d6 99 bc f3 e3 af 3d 8f 4d 90 bd f5 c3 14 3e
       -0.018779213 0.085884 -0.07046043 0.14527877
000320 86 1a b0 bd f2 f9 c3 be f4 f3 00 3d 18 73 dc 3d
       -0.08598809 -0.3827663 0.03148265 0.1076414
000330 3f 09 9c bd 10 0d 8a 3d de c4 87 3e 4b a0 b1 bd
       -0.07618951 0.06740773 0.26517385 -0.086731516
000340 93 c8 9f be 4a 92 ea bc b0 b5 ba bc 9d 75 32 bd
       -0.31207713 -0.02863421 -0.022791713 -0.043569196
000350 c4 14 7d bd db c7 89 bd 94 41 86 bd d0 59 92 3a
       -0.06178738 -0.067275725 -0.06555477 0.0011165682
000360 7d 16 22 be e3 e4 24 be 5f 6e cb 3e 12 c9 91 bd
       -0.15828891 -0.16102938 0.39732644 -0.07118429
000370 08 d0 d6 bd 6b 96 d3 bc 5a 9b 2e 3e 1c 19 e4 3c
       -0.104888976 -0.02582856 0.1705145 0.027844004
000380 55 8e 9f be c1 e3 1e be 00 41 02 be 45 fb cb 3e
       -0.31163278 -0.15516569 -0.12720108 0.3984014
000390 8e ae f2 bc ac d0 8a be 1f 38 34 be 0f d8 08 be
       -0.02962425 -0.2711233 -0.17599533 -0.1336367
0003a0 3f 1a 80 be e1 e8 5f 3e 8b bc 01 3e 10 17 ae bc
       -0.25020024 0.2186618 0.1266958 -0.021251231
0003b0 b0 4b 01 bd 57 74 93 3d 6f 16 be 3e 44 57 3d be
       -0.03156632 0.071999244 0.3712649 -0.1849032
0003c0 86 5a 8c bd f0 7b 59 3c ac 7b 28 be ee 1f 5a 3e
       -0.068532035 0.013274178 -0.16453427 0.21301243
0003d0 28 de ee bc d3 c7 b2 bd 5b 00 24 be 2d a7 ac bd
       -0.029158667 -0.0872952 -0.1601576 -0.08430324
0003e0 dd c1 1f be 92 d8 64 3e f0 26 32 bd b8 2d c0 be
       -0.15601297 0.2234824 -0.043494165 -0.3753488
0003f0 d2 4e 57 3e 37 75 8a be 28 d4 dc be f4 3e 25 be
       0.21026161 -0.27042553 -0.43130612 -0.16137296

fc.bias f4 [100]
000000 01 81 27 3e 10 11 ca 3d 84 95 7d be 54 f4 5d bd
       0.16357805 0.09866536 -0.24764067 -0.054188088
000010 89 72 2c be a6 3d a3 be 4c 04 e5 3d fa 02 5b 3c
       -0.16840567 -0.31882972 0.1118246 0.013367409
000020 1b b2 0d 3e 7b 18 41 be 20 6a 00 be 69 67 5f be
       0.13837473 -0.18856995 -0.12540483 -0.21816792
000030 95 5d 71 be 41 54 93 be a5 a4 ad bd bc d4 2d 39
       -0.23570855 -0.28775218 -0.08478669 0.00016577815
000040 10 f5 12 be 84 ee e7 bd e8 92 7c be 75 b3 6e be
       -0.14351296 -0.1132479 -0.24665415 -0.23310645
000050 80 a1 e5 bd af 7b d9 3d 5a 72 43 be 03 3f 7a 3d
       -0.11212444 0.10619294 -0.1908659 0.06109525
000060 99 5b 10 be fc 56 0a be 2f c4 ce bd 4e 72 82 be
       -0.14097442 -0.13509744 -0.10096013 -0.25477833
000070 e7 31 8d be 3e ac 9b bd 30 73 00 be 96 00 81 be
       -0.27577135 -0.07601212 -0.1254394 -0.2519576
000080 c2 e9 d1 bb 31 13 4f be 82 b5 d2 bd ca 65 74 be
       -0.00640604 -0.20222165 -0.10288526 -0.23866954
000090 8e d2 5f bd 20 7d 02 be 60 19 13 be 5c fc f1 bd
       -0.05464416 -0.12743044 -0.14365149 -0.11815712
0000a0 e8 13 d4 3d 71 54 6c bd 95 4f f7 bd ab 29 c9 3c
       0.10355359 -0.057697717 -0.12075726 0.024556002
0000b0 20 6a a9 be f1 87 3d be 6d ef 31 be bd ca c2 bd
       -0.3308878 -0.18508889 -0.1737649 -0.095113255
0000c0 aa 56 7e bd 53 a0 44 3c 7e 69 18 be cf 66 02 be
       -0.062094368 0.012001115 -0.14883992 -0.12734531
0000d0 a4 91 17 be 2a b7 01 bd 42 76 96 bd 51 26 ad bd
       -0.14801651 -0.03166882 -0.07346775 -0.08454574
0000e0 05 77 22 be 18 25 0a be e9 dd 60 bd de 46 35 be
       -0.15865715 -0.13490713 -0.05489913 -0.17702815
0000f0 fa d6 9b bd 98 f8 0a bd 65 55 d0 bc d6 de e2 bb
       -0.07609363 -0.033928484 -0.025431344 -0.006923537
000100 61 e9 8b be 11 e2 5f be 66 ed cf 3c a2 77 16 be
       -0.2732649 -0.21863581 0.025381755 -0.14694074
000110 b4 00 fe 3d b1 70 f8 bd ec f0 3b bc 58 f0 e5 3c
       0.12402478 -0.12130869 -0.0114710145 0.028068706
000120 4b 70 17 3d 26 e6 07 3e 92 4f 31 3e 2b bf 59 3d
       0.036972325 0.13271388 0.1731551 0.053160828
000130 36 46 de 3d e9 ec c4 3d 46 50 19 3e 00 f2 59 3e
       0.108532354 0.096154995 0.14972028 0.21283722
000140 f6 7e ac 3d 40 39 ec bd 0a 3b 55 3d 0b 49 69 3d
       0.084226534 -0.11534357 0.052058257 0.056954425
000150 b5 26 55 3e a1 af be bd 1f ae 0c be ca c4 5a bc
       0.20815547 -0.09310842 -0.13738297 -0.013352582
000160 26 66 c4 bd 63 e2 21 3d d9 47 d2 bd 8e 36 39 be
       -0.09589796 0.03952254 -0.1026761 -0.18087217
000170 4a dd b3 bd 8e 66 c0 bc 01 c2 0f 3d b4 38 86 be
       -0.08782442 -0.023486402 0.035097126 -0.26215136
000180 30 b1 58 bc 79 80 b2 bd 83 f6 04 bd a9 af 9d bd
       -0.013225839 -0.087159105 -0.032461654 -0.0769952

exp_avg f4 [100, 64]
000000 23 fd cf 38 ba 09 9d 37 e9 3d 3e b8 c2 0d 78 38
       9.9176796e-05 1.8720388e-05 -4.535719e-05 5.914062e-05
000010 e5 90 31 38 e8 a8 f5 37 9c 90 59 b8 99 80 23 b8
       4.2335032e-05 2.9284929e-05 -5.187151e-05 -3.8981994e-05
000020 ec 4a 8d 37 42 67 1e 38 7a 27 9e 38 11 5a b9 37
       1.6843398e-05 3.7766302e-05 7.54138e-05 2.2095659e-05
000030 c8 29 4a b7 5a 8d 1a b8 08 07 c5 b8 ba 28 76 38
       -1.2049866e-05 -3.6848105e-05 -9.395002e-05 5.86889e-05
000040 a2 cb 29 39 f7 01 d3 b8 94 37 8c b8 49 2f c5 36
       0.00016192955 -0.0001006163 -6.6860724e-05 5.876562e-06
000050 d7 93 c0 b8 a3 9d 97 38 77 76 54 37 1a 3b db 37
       -9.182811e-05 7.229603e-05 1.2663767e-05 2.6134356e-05
000060 d7 20 17 38 54 a7 c8 38 d0 a9 4a b8 c5 85 42 b8
       3.603179e-05 9.5679105e-05 -4.8318703e-05 -4.6377787e-05
000070 85 30 93 38 78 ad b8 38 4b b4 11 38 0e b8 69 39
       7.018544e-05 8.806115e-05 3.4738605e-05 0.00022289177
000080 5f 02 26 38 17 5c 01 b9 60 de f5 b6 d2 e4 96 b8
       3.9579692e-05 -0.00012336705 -7.327457e-06 -7.1951785e-05
000090 16 c3 17 39 9f 06 8d b8 6f 0f 68 37 f6 0b 80 38
       0.00014473157 -6.724637e-05 1.3831871e-05 6.1057435e-05
0000a0 48 76 ec 38 4f 42 3c b7 4d 4e 00 39 49 a9 da b8
       0.000112753885 -1.1221112e-05 0.000122362 -0.00010426582
0000b0 79 2d 82 b9 cc 8c c8 38 9e 17 a9 b6 0f fa d2 36
       -0.00024829412 9.5629686e-05 -5.039342e-06 6.2875984e-06
0000c0 54 30 1d 36 b2 91 36 b6 f6 8e 16 b7 72 5a 23 b8
       2.3422954e-06 -2.720492e-06 -8.973982e-06 -3.8946462e-05
0000d0 e1 a1 8c b7 ab 91 9e 37 59 2f 74 b9 14 cf 0c b7
       -1.6764681e-05 1.89029e-05 -0.00023287292 -8.392864e-06
0000e0 01 03 80 b8 0b bd 94 38 79 77 31 39 8b b3 1d b8
       -6.104075e-05 7.092402e-05 0.00016924542 -3.759893e-05
0000f0 b1 eb 77 b8 b0 58 a9 37 1d f6 61 39 fa 08 02 38
       -5.9108894e-05 2.0187668e-05 0.00021549356 3.1002775e-05
000100 cd 2a b5 38 57 cc 8b b8 c0 72 49 39 c2 5a a4 b9
       8.638725e-05 -6.666098e-05 0.00019211601 -0.00031348137
000110 42 2a 90 39 2f f8 de b8 71 62 0d 38 a3 ec d8 39
       0.00027497305 -0.00010632013 3.37087e-05 0.0004137504
000120 ec 39 14 3a 05 d1 4c 37 8a 89 d0 b7 7f f2 ac b8
       0.0005654383 1.2208014e-05 -2.4859579e-05 -8.2467675e-05
000130 95 2d b1 39 4d 0d 42 39 ea 7b b2 b9 ca 40 cc 39
       0.00033794032 0.00018506237 -0.0003404313 0.00038958184
000140 35 4f 02 3a 49 f6 81 37 78 6e b7 39 e6 1f 2f b9
       0.0004970909 1.5492684e-05 0.00034986786 -0.00016701184
000150 9c a7 78 b9 46 1a 81 38 77 f8 e9 39 24 80 fe 38
       -0.00023713562 6.156093e-05 0.00044626344 0.00012135532
000160 d2 4b 02 3a 20 37 06 37 1e 60 45 b9 0f 6a ad 38
       0.00049704046 7.999857e-06 -0.0001882319 8.269038e-05
000170 e1 1d e5 b8 96 4b db b8 c9 f1 6f 39 9b ed 0d 3a
       -0.00010925136 -0.00010456813 0.00022882888 0.0005414129
000180 d2 6b 3a 39 67 cd 53 b9 f8 a5 17 b9 9e d9 fa b8
       0.00017778508 -0.00020199046 -0.0001446231 -0.00011961463
000190 5d b5 e0 38 72 2d 93 39 d4 fb 12 37 77 0f 8f 39
       0.00010714934 0.00028071884 8.760911e-06 0.00027286608
0001a0 f2 5b e7 39 31 cb 7a b7 30 7f 07 ba 9c f4 94 b9
       0.00044128258 -1.494847e-05 -0.0005168794 -0.00028411008
0001b0 82 25 0c ba 16 15 3d b8 f5 78 67 b9 b0 45 3c b8
       -0.0005346165 -4.508075e-05 -0.00022074937 -4.4887594e-05
0001c0 45 8d f8 37 b8 df 11 39 d1 29 c8 38 25 9b f7 b9
       2.9629688e-05 0.0001391162 9.544532e-05 -0.00047227103
0001d0 64 d0 9e b9 72 d2 ef b9 4b fb 92 b9 d2 97 a3 39
       -0.00030291372 -0.00045742426 -0.00028034518 0.00031202898
0001e0 24 ff ce b9 1d 8a 86 39 be d2 2d 36 29 51 92 b9
       -0.00039481476 0.00025661374 2.5901677e-06 -0.0002790776
0001f0 ff ab f3 b8 d7 47 82 b9 f6 26 c4 39 7d 93 f1 39
       -0.0001161918 -0.00024849057 0.0003741306 0.0004607699
000200 71 b3 44 b7 7d 04 5c b7 08 23 8c b6 34 ae 85 b7
       -1.172429e-05 -1.3114067e-05 -4.1764033e-06 -1.5935955e-05
000210 ac 18 1b 37 2a fa ab b7 d4 c8 d4 b5 02 44 23 b8
       9.244464e-06 -2.050128e-05 -1.585368e-06 -3.8925566e-05
000220 3a d8 87 b8 cb 4a 4d 37 fe 7b d5 34 a0 c1 42 37
       -6.477577e-05 1.2236366e-05 3.9764558e-07 1.1608383e-05
000230 e6 be 4f 37 cb 85 1e 38 cb af 28 38 d5 cb 3e b8
       1.23826085e-05 3.779474e-05 4.021804e-05 -4.5489363e-05
000240 aa 0a ca b8 dd c4 2e b7 4c f3 28 b7 32 c2 05 38
       -9.634097e-05 -1.0417044e-05 -1.0070227e-05 3.189053e-05
000250 49 e8 bf b5 79 5d ea b6 c8 c2 52 b8 ba 01 ae 37
       -1.4298213e-06 -6.984625e-06 -5.0249306e-05 2.074322e-05
000260 23 4d cf b7 ba 1e ca b6 7f d4 21 37 04 79 86 b7
       -2.4712243e-05 -6.023646e-06 9.645823e-06 -1.6030397e-05
000270 0f 26 cb b7 e3 2c 11 36 44 14 4b b8 6a 4c 71 b8
       -2.4217208e-05 2.1632811e-06 -4.8417845e-05 -5.7530044e-05
000280 12 98 a7 b7 98 3d 33 38 cc d4 12 b8 be 49 88 36
       -1.9978765e-05 4.273429e-05 -3.5007295e-05 4.0617006e-06
000290 ea 31 e9 35 93 98 d3 37 f5 c8 0b b8 0c 31 d1 b7
       1.737438e-06 2.5224208e-05 -3.332734e-05 -2.493758e-05
0002a0 bc 78 57 b8 64 cc 5f 36 80 84 90 37 bd b6 52 38
       -5.1372437e-05 3.334856e-06 1.7227838e-05 5.023809e-05
0002b0 78 78 f8 37 1e 70 b4 37 f2 3b 68 b7 03 f4 71 37
       2.9620001e-05 2.150988e-05 -1.3842235e-05 1.4421533e-05
0002c0 ec 69 88 37 4b 66 be 36 cc 06 8b 38 61 a0 33 38
       1.6261787e-05 5.6743497e-06 6.6293025e-05 4.282629e-05
0002d0 0b f0 e6 37 52 e6 07 38 80 ee 2a 38 41 32 33 b8
       2.7529915e-05 3.240101e-05 4.075328e-05 -4.272373e-05
0002e0 bc b3 a6 38 5c b1 ed b7 28 b1 14 b8 ad 63 07 b7
       7.948975e-05 -2.8335191e-05 -3.545094e-05 -8.069835e-06
0002f0 55 4d 1f b6 40 ed 33 36 57 51 53 b8 df d8 26 b8
       -2.373786e-06 2.6811176e-06 -5.0382074e-05 -3.977946e-05
000300 29 b6 c7 b7 27 db a1 b6 d7 a3 8f b6 77 ac 55 b7
       -2.3807474e-05 -4.8236866e-06 -4.2808056e-06 -1.2735944e-05
000310 ca f0 cb b6 f6 4d 9e b6 55 15 ce b6 9a a6 87 37
       -6.077903e-06 -4.717843e-06 -6.141762e-06 1.6170834e-05
000320 df a0 51 b8 38 54 0a 38 7f 25 d6 b7 87 b1 1c b6
       -4.9979306e-05 3.29802e-05 -2.5528248e-05 -2.3349146e-06
000330 12 63 4d 37 df 5c 33 38 94 45 5f 36 4f d3 f5 b7
       1.2242019e-05 4.276342e-05 3.327009e-06 -2.9304674e-05
000340 a2 b0 a6 b8 5b 08 0e b8 d8 f9 0a b8 93 7c 1c 38
       -7.948397e-05 -3.386322e-05 -3.313445e-05 3.7309317e-05
000350 56 a8 8d 37 49 8b bf 36 08 d3 06 b7 44 24 d7 35
       1.6886897e-05 5.7084585e-06 -8.036157e-06 1.6029303e-06
000360 bc 26 1e b7 55 7a 1d b8 8a 79 e2 36 14 65 c7 b7
       -9.426552e-06 -3.7545648e-05 6.749474e-06 -2.3769717e-05
000370 16 a9 30 b8 5d 6e 12 b6 61 7e 3e b8 42 a5 97 b8
       -4.2119143e-05 -2.1819935e-06 -4.541723e-05 -7.231023e-05
000380 f6 e8 dc b7 4d 87 43 38 4c 6d 6f b8 0c 4e 10 38
       -2.6334525e-05 4.661763e-05 -5.708383e-05 3.4404962e-05
000390 e6 01 ec b7 30 a1 0e 37 d7 79 0a b7 53 13 b0 b5
       -2.8134276e-05 8.501389e-06 -8.253809e-06 -1.3118646e-06
0003a0 0f 57 3d b8 b3 44 68 b7 ff 91 b9 35 5a ac 58 38
       -4.514219e-05 -1.3844273e-05 1.3826065e-06 5.1658928e-05
0003b0 62 95 fd 37 6f 28 48 37 b9 7f 29 35 c2 ca 92 36
       3.0229512e-05 1.1930343e-05 6.3143267e-07 4.374743e-06
0003c0 14 47 f0 b6 5f 66 b7 b6 39 85 71 38 7d d4 b5 37
       -7.160832e-06 -5.4657426e-06 5.758295e-05 2.1675829e-05
0003d0 f6 9f 4d 37 ab 8d 14 38 e3 43 fa b6 dc 92 85 b7
       1.2256196e-05 3.541789e-05 -7.4584837e-06 -1.5923222e-05
0003e0 e5 52 c6 37 16 91 6e b7 4d 16 01 b8 7f 42 42 35
       2.364204e-05 -1.4219686e-05 -3.0776766e-05 7.2367396e-07
0003f0 c5 21 2e b6 ae e3 7e b6 b5 8c 1a b8 e6 61 90 b7
       -2.5947677e-06 -3.7981476e-06 -3.6847505e-05 -1.7211725e-05
